Lab 3/sign_mnist.tflite (tflite, 913092 bytes, 9 tensors)

sequential_5/dense_21/BiasAdd/ReadVariableOp/resource f4 [25]
-0.17164896 0.10462724 -0.37929484 0.18831469 0.1269209 0.21760474 -0.10267029 0.021973696
0.36111933 -0.39738145 -0.18179235 -0.11425858 -0.051734623 -0.3244436 -0.24336502 0.2791868
-0.44216564 0.03713184 0.07954508 -0.07421284 0.21643616 0.37615278 0.3938913 0.3256866
-0.3290487
00000000: bfc4 2fbe ce46 d63d ef32 c2be 91d5 403e
00000010: 8df7 013e c7d3 5e3e cd44 d2bd 2e02 b43c
00000020: a2e4 b83e 9575 cbbe c627 3abe 6700 eabd
00000030: afe7 53bd 791d a6be ae34 79be 92f1 8e3e
00000040: 8963 e2be 8e17 183d 88e8 a23d e7fc 97bd
00000050: 71a1 5d3e 1997 c03e 1fac c93e 65c0 a63e
00000060: 1279 a8be

sequential_5/batch_normalization_22/FusedBatchNormV3 f4 [32]
-0.015361056 -1.5241854 -0.77301854 -0.20506166 0.13967875 2.055017 -0.9250858 0.2607392
-0.35409665 -0.2688518 0.8904013 0.16028675 -1.3557905 -2.7032323 -0.20164254 1.710119
0.39682472 2.6440353 -0.51972395 0.51614547 -2.9191332 -0.37066308 -3.441003 -0.74526286
-0.21228835 0.32214877 -0.17714415 -0.663441 -0.1978974 0.18524432 -0.1085775 -0.68749785
00000000: f0ac 7bbc 8218 c3bf 8be4 45bf affb 51be
00000010: f207 0f3e 6685 0340 6cd2 6cbf 9c7f 853e
00000020: 284c b5be f1a6 89be 57f1 633f 3622 243e
00000030: 8b8a adbf c201 2dc0 627b 4ebe 2ee5 da3f
00000040: 9c2c cb3e e037 2940 a10c 05bf 1c22 043f
00000050: 14d3 3ac0 8dc7 bdbe 6539 5cc0 8cc9 3ebf
00000060: 1e62 59be aff0 a43e 4765 35be 45d7 29bf
00000070: 9ea5 4abe b0b0 3d3e e15d debd dcff 2fbf

sequential_5/batch_normalization_23/FusedBatchNormV3 f4 [64]
-0.009301662 0.123922884 0.03931302 -0.03521824 -0.0519948 0.14150688 -0.0033738017 0.7490778
0.0071820617 -0.24541569 0.042527556 -0.13093925 -1.0212126 -0.11937821 -0.146463 -0.5277251
-0.2528516 0.5770069 0.16726768 1.0559261 0.14612752 0.19601858 -0.06838745 0.2293663
-0.21938309 0.49413002 0.35895288 0.55225927 -0.16778296 -0.499933 -0.62189406 -0.2726994
-0.28766412 -0.6250613 -0.17576557 0.35653448 -0.207104 0.8780803 0.2251172 -0.21341538
1.0266051 -0.321622 0.29749173 0.17696357 0.5812867 -0.26669896 -0.02078402 -0.25899035
-0.760656 -0.15716231 -0.09881878 0.5223407 1.0590168 -0.79775643 0.21287388 -0.29022896
0.06892848 0.28790712 0.82463634 -0.16213763 -0.020323992 -0.05769694 -0.24456757 0.55162305
00000000: 0066 18bc 48cb fd3d b006 213d 0041 10bd
00000010: 80f8 54bd 2ee7 103e 001b 5dbb 90c3 3f3f
00000020: 8057 eb3b 404e 7bbe 6031 2e3d f014 06be
00000030: 18b7 82bf 907c f4bd 66fa 15be fe18 07bf
00000040: c475 81be b9b6 133f 3848 2b3e 9628 873f
00000050: 74a2 153e 18b9 483e b80e 8cbd 00df 6a3e
00000060: f6a5 60be 9cfe fc3e acc8 b73e dd60 0d3f
00000070: 4ccf 2bbe 38f7 ffbe 7334 1fbf 419f 8bbe
00000080: b648 93be 0404 20bf e4fb 33be b08b b63e
00000090: 1213 54be dfc9 603f 2085 663e 9089 5abe
000000a0: cc67 833f a4ab a4be d650 983e f035 353e
000000b0: 35cf 143f c48c 88be 4043 aabc 629a 84be
000000c0: 5aba 42bf 28ef 20be 8061 cabd 1fb8 053f
000000d0: dd8d 873f c439 4cbf 9cfb 593e e498 94be
000000e0: 602a 8d3d 9068 933e 5e1b 533f 6807 26be
000000f0: 807e a6bc a053 6cbd ec6f 7abe 2b37 0d3f

sequential_5/batch_normalization_24/FusedBatchNormV3 f4 [64]
0.45767054 0.022087198 -0.076039225 -0.08148994 0.7692077 0.61422676 0.12222356 -0.13132325
-0.36062533 0.38028473 -0.1621796 -0.11796887 -0.24418674 -0.26956528 0.22856566 0.2371827
-0.19129498 -0.38310155 1.1324087 0.48606372 0.5857682 0.21050556 -0.4211924 -0.09408987
0.3541959 -1.0244452 0.6517015 0.26898175 0.2669214 -0.07943969 -0.040088236 -0.1276132
0.3327745 -0.30448747 -0.3490126 -0.5527973 0.33863896 0.28184056 -0.033297367 -0.2205718
0.012846641 0.42607534 -0.8936431 0.5243243 0.19933553 -0.5751995 0.024038136 0.12749285
0.022723623 -0.2711559 -0.023848891 0.043843985 -0.6339239 -0.10003258 0.32177928 -0.71189284
-0.7776053 0.28439003 0.12399739 -0.46399495 0.15195018 -0.14492738 0.101165175 -0.98753595
00000000: cb53 ea3e 36f0 b43c 74ba 9bbd 33e4 a6bd
00000010: ccea 443f f73d 1d3f 5950 fa3d 9a79 06be
00000020: e2a3 b8be aeb4 c23e 6912 26be aa99 f1bd
00000030: 170c 7abe 7604 8abe 1e0d 6a3e 06e0 723e
00000040: d5e2 43be e325 c4be c5f2 903f 58dd f83e
00000050: e8f4 153f c58e 573e 88a6 d7be 31b2 c0bd
00000060: 2a59 b53e 0521 83bf e9d5 263f fab7 893e
00000070: eca9 883e 47b1 a2bd 9033 24bd 09ad 02be
00000080: 6b61 aa3e c8e5 9bbe c8b1 b2be 2084 0dbf
00000090: 1662 ad3e 684d 903e d262 08bd 93dd 61be
000000a0: b87a 523c 8c26 da3e cbc5 64bf 1e3a 063f
000000b0: 9d1e 4c3e 4640 13bf a0eb c43c 7c8d 023e
000000c0: e426 ba3c f2d4 8abe c05e c3bc c095 333d
000000d0: d648 22bf e2dd ccbd 41c0 a43e 9c3e 36bf
000000e0: 2411 47bf 929b 913e 58f2 fd3d bf90 edbe
000000f0: d498 1b3e d867 14be b02f cf3d 28cf 7cbf

sequential_5/dense_20/MatMul f4 [64, 64]
0.1825237 -0.029234037 -0.43395615 -0.51173407 0.26601648 0.41657037 -0.37058473 0.48424253
-0.074888304 0.3175892 -0.40523124 -0.22735406 -0.3880094 0.74518067 0.062345766 -0.21075189
0.06638651 -0.31797826 -0.04354082 0.40323794 0.30694032 -0.32874104 -0.59032446 0.2609431
-0.07088424 -0.30242756 0.276798 0.17604068 0.08031658 -0.051352583 0.07639043 -0.23089772
0.21034579 -0.12941138 -0.14382832 -0.07407527 0.23419283 -0.5480672 0.57645917 0.39615425
-0.31278932 -0.24119124 -0.028892504 0.22003053 0.2194178 0.31197405 -0.13796501 0.14241649
0.22765042 0.1159553 0.48607066 0.33991095 0.17702994 0.054749176 -0.47440353 -0.087234214
-0.39025077 -0.054778226 -0.05455442 0.005355385 -0.45875382 -0.068743184 -0.04568273 0.19340676
-0.33452109 0.33066472 -0.31694555 0.081283756 -0.1698389 0.14781703 -0.40497237 0.4605049
-0.7010566 0.5068733 -0.26557183 -0.38018093 0.057097483 -0.042458933 0.3253915 -0.09037537
-0.14453231 0.19575326 -0.11307555 0.39055392 -0.096092045 -0.24126276 -0.23216292 -0.5042426
0.15759237 0.16286738 0.28862312 0.5149883 -0.17963684 -0.10802142 -0.22008415 0.32090372
0.18897092 0.07429303 -0.14850987 -0.07689122 -0.31657532 -0.3740529 0.5285933 -0.10786409
-0.3281534 -0.055058096 -0.073072515 0.30745435 0.37055847 0.47452706 0.25709024 0.2973611
0.37390405 0.061020512 0.23684587 0.64334446 -0.06518864 0.4288934 0.034813114 -0.19883606
-0.42684495 0.2006054 0.06051626 -0.28046924 -0.20570719 -0.08304266 -0.16374603 0.30243173
0.46272886 0.20141567 0.38897935 0.19000967 -0.16238129 -0.266373 0.15563257 -0.5254018
-0.017791377 0.014354155 0.4230383 -0.20437886 0.05827334 -0.31366387 0.3357198 -0.19267263
0.042870373 0.09558555 0.03432531 -0.78265595 -0.14044279 0.26428512 -0.111599945 0.015415255
0.17863256 0.17539993 -0.49974963 0.08851673 0.28447318 0.09726992 -0.09439498 0.16649523
-0.25982046 -0.20559408 0.11587814 0.49453214 -0.21922919 0.14366943 0.28144652 -0.20496848
0.2718916 0.04563484 0.020441612 -0.15203848 0.04033463 -0.049331732 0.38027486 -0.6564859
-0.20282927 0.17875242 0.017322082 0.09604371 0.04287252 -0.44281965 -0.07546992 -0.69052243
0.053035453 0.20315206 0.33869445 -0.5339294 0.267027 -0.35797852 -0.24041209 -0.2778074
0.09125362 0.07204042 0.08401505 0.092598654 0.061725684 0.0055936053 -0.28674617 -0.052554425
0.047406957 -0.24848619 0.10489316 0.02585295 0.077899955 -0.03951855 -0.2761582 -0.29104304
-0.12006278 0.008554513 0.091664165 0.10338006 -0.06426222 -0.24221198 -0.09545379 -0.19553703
-0.02138874 -0.26477635 -0.112025954 -0.10878478 -0.14680414 -0.072980516 0.031319994 -0.15918534
-0.18397768 -0.31658778 0.06520269 -0.13319255 -0.024147447 -0.27456874 -0.16994654 -0.31057823
-0.21586147 -0.26229003 -0.12898082 -0.19402829 -0.19156994 -0.1422894 0.0024945778 0.026015785
0.088896364 -0.032256126 -0.25513482 -0.11776119 -0.010524038 -0.27669874 -0.117728606 0.039100777
-0.011483369 0.0640752 -0.08283234 0.02264156 0.057051405 -0.09993072 -0.075317465 -0.2509385
00000000: 7ee7 3a3e 387c efbc 802f debe 0101 03bf
00000010: 5033 883e b648 d53e 48bd bdbe a3ee f73e
00000020: 0a5f 99bd 0d9b a23e 787a cfbe 81cf 68be
00000030: 2ba9 c6be 29c4 3e3f 465e 7f3d 58cf 57be
00000040: a7f5 873d 0cce a2be dc57 32bd 3475 ce3e
00000050: 4827 9d3e bf50 a8be 811f 17bf 569a 853e
00000060: c22b 91bd c9d7 9abe 78b8 8d3e 0244 343e
00000070: 057d a43d 1657 52bd 9672 9c3d 7470 6cbe
00000080: e364 573e 6b84 04be bb47 13be c6b4 97bd
00000090: 3fd0 6f3e 224e 0cbf d492 133f bbd4 ca3e
000000a0: ec25 a0be d6fa 76be f9af ecbc af4f 613e
000000b0: 0faf 603e 10bb 9f3e b346 0dbe a1d5 113e
000000c0: 311d 693e f979 ed3d 41de f83e cf08 ae3e
000000d0: 5647 353e ac40 603d 05e5 f2be daa7 b2bd
000000e0: f3ce c7be 225f 60bd 7574 5fbd 3a7c af3b
000000f0: c8e1 eabe 3ac9 8cbd d01d 3bbd 6c0c 463e
00000100: 5946 abbe e34c a93e b046 a2be 1978 a63d
00000110: 40ea 2dbe 595d 173e 8a58 cfbe 4cc7 eb3e
00000120: 7278 33bf 73c2 013f 08f9 87be 13a7 c2be
00000130: 0ddf 693d 6be9 2dbd b799 a63e b916 b9bd
00000140: 4700 14be 8b73 483e 2794 e7bd aff6 c73e
00000150: e8cb c4bd 960d 77be 1ebc 6dbe 0b16 01bf
00000160: e55f 213e b5c6 263e 69c6 933e 46d6 033f
00000170: b8f2 37be 563a ddbd bd5d 61be 7e4d a43e
00000180: 9881 413e f226 983d f912 18be 2579 9dbd
00000190: 2916 a2be dd83 bfbe e451 073f d9e7 dcbd
000001a0: b903 a8be 9984 61bd 0ba7 95bd a86a 9d3e
000001b0: d7b9 bd3e 36f5 f23e 55a1 833e b73f 983e
000001c0: 5a70 bf3e a5f0 793d b987 723e 39b2 243f
000001d0: 9f81 85bd ea97 db3e 3298 0e3d ae9b 4bbe
000001e0: 6c8b dabe 816b 4d3e e6df 773d aa99 8fbe
000001f0: e8a4 52be 4512 aabd 0aad 27be 55d8 9a3e
00000200: ccea ec3e e93f 4e3e 4d28 c73e e591 423e
00000210: 4847 26be 0b62 88be 255e 1f3e bb80 06bf
00000220: 39bf 91bc b12d 6b3c 7a98 d83e b148 51be
00000230: 07b0 6e3d 8d98 a0be 77e3 ab3e f94b 45be
00000240: d898 2f3d 5bc2 c33d b298 0c3d 245c 48bf
00000250: 3cd0 0fbe 6150 873e 838e e4bd 4490 7c3c
00000260: 74eb 363e 0a9c 333e 2fdf ffbe 4248 b53d
00000270: 78a6 913e 7435 c73d 2852 c1bd ba7d 2a3e
00000280: 3007 85be 4187 52be 8551 ed3d 5133 fd3e
00000290: 9e7d 60be 141e 133e c219 903e 42e3 51be
000002a0: 6035 8b3e 99eb 3a3d 2b75 a73c faaf 1bbe
000002b0: ed35 253d 1210 4abd 63b3 c23e 760f 28bf
000002c0: 7ab2 4fbe e00a 373e 0ae7 8d3c 91b2 c43d
000002d0: 189b 2f3d 42b9 e2be f98f 9abd 14c6 30bf
000002e0: b43b 593d 1807 503e 5c69 ad3e 99af 08bf
000002f0: c3b7 883e f648 b7be 962e 76be c63c 8ebe
00000300: 2ee3 ba3d ed89 933d 1510 ac3d 5da4 bd3d
00000310: 12d4 7c3d 904a b73b 65d0 92be 4f43 57bd
00000320: cc2d 423d 2a73 7ebe 3ad2 d63d 91c9 d33c
00000330: 038a 9f3d 34de 21bd 9c64 8dbe 9803 95be
00000340: 7ae3 f5bd 3a28 0c3c 6cba bb3d edb8 d33d
00000350: e99b 83bd 6b06 78be 477d c3bd dc3a 48be
00000360: 7037 afbc c490 87be dd6d e5bd 8eca debd
00000370: d353 16be cf76 95bd 6549 003d 7b01 23be
00000380: a564 3cbe cb17 a2be fd88 853d a163 08be
00000390: ded0 c5bc 4694 8cbe 7706 2ebe 1c04 9fbe
000003a0: ca0a 5dbe e14a 86be 8c13 04be 5aaf 46be
000003b0: e92a 44be 50b4 11be 127c 233b 0e1f d53c
000003c0: 4c0f b63d 001f 04bd 08a1 82be c72c f1bd
000003d0: 046d 2cbc 75ab 8dbe b21b f1bd 2328 203d
000003e0: be24 3cbc dc39 833d 00a4 a9bd cb7a b93c
000003f0: bcae 693d 7aa8 ccbd 0b40 9abd 037b 80be

sequential_5/dense_21/MatMul f4 [25, 64]
0.3153891 0.32287687 -0.4328798 0.1665401 0.0979626 0.19655186 -0.25651646 0.031331193
0.43491808 0.18315062 -0.9547176 -0.15018049 -0.1447655 -0.17783026 0.116345905 -0.14295846
-0.5467659 -0.06978501 -0.18747805 -0.7535509 -0.37251222 -0.11236025 0.15317635 -0.5943163
-0.13977072 -1.131011 0.09472716 -0.50593394 -1.346268 -0.03229993 0.40490943 -0.25924766
-0.31034103 0.09037608 -0.5004834 -0.00080171815 0.09647655 -0.03223405 0.15371388 -0.21654515
-0.6963623 0.05271885 0.044134796 0.14363435 0.057577588 -0.1869776 -0.31446669 0.17968269
0.3804247 0.3128728 -0.050726496 -0.07289817 0.03302409 -0.8591038 -0.11059558 -0.17027353
0.043825734 0.29930922 0.22757934 -0.04937237 -0.5791436 -0.23989847 0.13244718 -0.22082794
-0.8452197 -0.74711937 -0.4681065 -0.0534509 -0.16747932 0.39770788 0.32604325 0.18758148
-0.6043557 -0.029613655 0.22905146 0.22184923 -0.093486935 0.11176716 0.21376373 -0.064184204
0.16977495 -0.31311208 -0.016618231 -0.49149835 -0.5446621 -0.25107235 0.13642593 0.37957475
-0.18830499 -0.9664256 0.04925579 -0.53660625 0.15852009 0.21740592 -0.4370057 0.33282134
-0.11753705 -0.039596252 -0.64130485 -0.20926905 -0.0039307973 -0.26740167 -0.1666676 -0.039486516
0.2211395 0.21324305 -0.17103405 -0.2206857 -0.08453044 -0.17533734 -0.0001223674 -0.43036038
-0.92489195 -0.21604557 0.17938554 -0.029561615 0.055469733 0.14136913 0.085262716 -0.20436773
-0.26140967 -1.2849839 -0.0813547 0.023090897 -0.52015305 0.09031407 -0.14028601 0.050079655
-0.56773907 -0.5505054 0.3591983 -0.20944604 0.035956703 0.26909283 -0.47380212 -0.04785678
0.46519417 -0.054218087 -0.23863451 -0.16781113 0.31021652 0.22103049 0.09552145 0.16855836
-0.08439071 -0.18450485 0.16038862 0.36892736 -0.060759094 -0.0022978266 0.20733097 -0.6491315
0.17862052 -0.68587345 0.14015578 0.33635134 -0.0817516 0.028766941 -0.4051024 -0.21651119
0.009669898 -0.10253041 0.12552434 0.08676307 0.1831385 0.22455117 -0.073913045 0.030090451
-0.45049572 0.120754324 -0.027577572 0.1543649 -0.07692985 -0.048173856 -0.07535005 0.3127012
-0.49454364 -0.31423947 0.19765684 -0.17256476 -0.090079635 -1.0656222 0.08758877 -0.01323307
-0.03149533 0.3043073 0.15066068 -0.08994094 -0.38444316 -0.097093455 0.025470406 -0.012892829
-0.40480736 -0.4922354 -0.28103766 0.07113604 -0.1762765 -0.5345215 -0.18553345 0.099083714
-0.5265223 -0.102955356 -0.06599976 -0.14756577 -0.20099315 -0.16354486 -0.031168263 0.01419107
-0.31246918 -0.04611078 -0.20268495 0.21669984 -0.30949593 0.09437764 0.31618094 -0.4830307
0.015020903 0.31734163 0.07320589 -0.15781587 0.20146124 -0.17184876 -0.46253055 0.14414015
-0.063312285 -0.05409345 0.59818643 -0.2119867 -0.093631044 -0.029067662 0.16386315 -0.28244948
0.26372948 0.26691127 0.14906771 -0.058944423 -0.2111557 -0.0721947 0.062456463 -0.14667568
-0.47733003 0.20505404 0.09904744 0.17215087 0.03156255 0.27214238 0.040855106 -0.049024604
0.15701854 -0.7503502 0.14308526 0.17971125 0.43428862 0.032434657 0.117607504 -0.09891712
00000000: ae7a a13e 1e50 a53e 6ca2 ddbe 7d89 2a3e
00000010: 9ea0 c83d e444 493e 2056 83be 2355 003d
00000020: 95ad de3e d68b 3b3e 5f68 74bf eac8 19be
00000030: 683d 14be 2319 36be c346 ee3d b463 12be
00000040: daf8 0bbf 71eb 8ebd 3ffa 3fbe b6e8 40bf
00000050: ecb9 bebe 211d e6bd 43da 1c3e 1d25 18bf
00000060: 0e20 0fbe f8c4 90bf 5000 c23d e384 01bf
00000070: 8352 acbf ee4c 04bd 4a50 cf3e 1cbc 84be
00000080: 05e5 9ebe 1817 b93d ae1f 00bf 652a 52ba
00000090: 7f95 c53d da07 04bd 2c67 1d3e 03be 5dbe
000000a0: cd44 32bf b9ef 573d b0c6 343d e214 133e
000000b0: 7ad6 6b3d 0e77 3fbe c701 a1be bdfe 373e
000000c0: 07c7 c23e dd30 a03e 96c6 4fbd a34b 95bd
000000d0: 4544 073d 3aee 5bbf ef7f e2bd 2f5c 2ebe
000000e0: 9d82 333d 0f3f 993e 8f0a 693e af3a 4abd
000000f0: c142 14bf f2a7 75be 3ca0 073e b820 62be
00000100: 5160 58bf 3743 3fbf a8ab efbe 55ef 5abd
00000110: b37f 2bbe 5ea0 cb3e 24ef a63e 5c15 403e
00000120: 0eb7 1abf 5698 f2bc 778c 6a3e 722c 633e
00000130: 1476 bfbd 2ee6 e43d e1e4 5a3e 0273 83bd
00000140: 7cd9 2d3e 3a50 a0be f522 88bc aca5 fbbe
00000150: fa6e 0bbf 8e8c 80be 3db3 0b3e 9f57 c23e
00000160: 06d3 40be ab67 77bf 70c0 493d 075f 09bf
00000170: 1753 223e a89f 5e3e 36bf dfbe 8f67 aa3e
00000180: 44b7 f0bd ae2f 22bd 8e2c 24bf a04a 56be
00000190: ebcd 80bb dfe8 88be e9aa 2abe 9dbc 21bd
000001a0: 6572 623e 635c 5a3e 8d23 2fbe 6ffb 61be
000001b0: 4c1e adbd a28b 33be c04f 00b9 3258 dcbe
000001c0: b8c5 6cbf 0d3b 5dbe d8b0 373e 332b f2bc
000001d0: 3b34 633d 12c3 103e 389e ae3d c645 51be
000001e0: 7dd7 85be 5a7a a4bf 4b9d a6bd 1f29 bd3c
000001f0: c028 05bf 95f6 b83d 23a7 0fbe 5320 4d3d
00000200: 5957 11bf eced 0cbf d7e8 b73e 0679 56be
00000210: 5647 133d 89c6 893e 3196 f2be 7905 44bd
00000220: ee2d ee3e c913 5ebd 9b5c 74be aed6 2bbe
00000230: b3d4 9e3e d155 623e c0a0 c33d 909a 2c3e
00000240: 09d5 acbd d7ee 3cbe ea3c 243e 0ce4 bc3e
00000250: 87de 78bd 2297 16bb 924e 543e 7b2d 26bf
00000260: 4ce8 363e 6795 2fbf ff84 0f3e 3e36 ac3e
00000270: 626d a7bd a6a8 eb3c 9569 cfbe 1cb5 5dbe
00000280: 7e6e 1e3c 77fb d1bd 7489 003e d6b0 b13d
00000290: a988 3b3e bef0 653e b95f 97bd 4080 f63c
000002a0: 60a7 e6be 0b4e f73d 5cea e1bc d511 1e3e
000002b0: 668d 9dbd f351 45bd 2151 9abd 5f1a a03e
000002c0: d334 fdbe ffe3 a0be 8e66 4a3e d1b4 30be
000002d0: ac7b b8bd 4f66 88bf be61 b33d 85cf 58bc
000002e0: 3f01 01bd 2bce 9b3e cb46 1a3e f532 b8bd
000002f0: bcd5 c4be efd8 c6bd 50a7 d03c 723c 53bc
00000300: e942 cfbe 4706 fcbe 2be4 8fbe c6af 913d
00000310: d481 34be 67d6 08bf 7bfc 3dbe 67ec ca3d
00000320: 2aca 06bf 42da d2bd e22a 87bd 7b1b 17be
00000330: 26d1 4dbe 4e78 27be 9654 ffbc a981 683c
00000340: f6fb 9fbe a8de 3cbd a58c 4fbe 90e6 5d3e
00000350: 4076 9ebe 1049 c13d 78e2 a13e cd4f f7be
00000360: 3c1a 763c 9a7a a23e f8ec 953d 7c9a 21be
00000370: db4b 4e3e 1ff9 2fbe ced0 ecbe 7a99 133e
00000380: dfa9 81bd 1891 5dbd bf22 193f 0b13 59be
00000390: a2c1 bfbd 4e1f eebc becb 273e 389d 90be
000003a0: 8d07 873e 98a8 883e 35a5 183e b56f 71bd
000003b0: 3339 58be d1da 93bd 59d2 7f3d 2632 16be
000003c0: 9a64 f4be b0f9 513e 62d9 ca3d 5148 303e
000003d0: bc47 013d 3f56 8b3e af57 273d 06ce 48bd
000003e0: 78c9 203e f316 40bf f184 123e 3a06 383e
000003f0: 145b de3e 34da 043d 34dc f03d 0f95 cabd

sequential_5/conv2d_15/Conv2D f4 [32, 3, 3, 1]
-0.783155 1.094342 0.03599154 -1.4601543 -1.3250799 2.6281207 0.99688816 -3.946379
3.1845014 5.140789 -1.3828294 -3.1862345 0.380174 3.5239384 -0.59603304 -6.638042
2.4143538 3.334007 -2.1166382 -0.7956622 -1.175657 -1.7537524 1.3289416 1.4790772
2.3866894 2.2281594 0.096376464 0.4636498 -0.13545229 -1.8142089 1.8616238 -2.490276
-0.6795941 3.114412 -0.81083906 0.42121556 3.3662007 -2.7556345 -1.0018702 -1.7192285
-4.545872 1.418099 -0.14384985 2.203236 2.9179347 -1.1161554 -1.988079 0.8813267
-0.9052578 -1.973385 0.36651582 -1.029383 0.9935478 0.46430585 2.4218543 0.6536089
0.7043978 0.6367169 1.8374203 0.76944387 -2.7425563 -2.5449767 -0.47769737 4.473271
-1.2516943 -2.1855464 0.029594464 -4.1576667 -0.47279203 -2.1814172 -0.19208644 5.6434608
1.925043 -2.1372774 -1.1181076 2.1824825 -0.65703654 -1.1817399 1.3998641 0.22166185
-0.4817673 -0.9085737 -1.046555 2.3177762 0.7803686 -3.6735134 2.6112227 2.1047513
-2.9753807 1.094152 1.4038903 -2.2121136 -0.385395 1.3546451 -1.9636725 -0.885128
3.1344078 -2.3822076 0.51836646 1.2858837 -1.6619534 -0.41612205 2.4691744 -1.6128995
-1.1437691 2.1046424 -0.44962883 -0.7417666 -0.9521047 0.3623389 2.7502487 -1.3257402
0.27310914 1.7219602 0.12042524 -1.159519 0.7224862 -0.19091271 0.80459756 -0.5840683
0.6075772 1.4852957 -1.448717 1.9111702 1.4910102 -0.108067974 2.4903452 0.8845392
-1.0409318 2.781906 -2.920153 -1.1793647 0.48841098 -3.698031 2.4974382 1.1382798
2.1334817 0.2935522 0.0018084527 -1.0972297 -1.7565374 -2.6903734 -1.2805542 -0.042007595
0.9828462 -3.1397128 1.6868474 0.87563056 -3.3046403 2.1957154 -0.7418935 -1.1562127
1.9996781 -1.2801307 -0.7167715 -0.52249 -0.22080582 -0.80465585 -1.1229547 0.33849522
-0.4896243 -0.5894529 -0.024516592 1.4886806 -2.8385878 -0.85806876 3.115345 -3.297991
-1.1246378 2.8707876 1.6746676 -0.64003193 1.884844 -0.4794794 -3.696926 2.1452603
0.0013176707 -2.0497327 2.9064827 -1.2954187 -1.7644954 -1.349432 3.4383447 1.8421361
1.702396 0.62163836 -0.6524075 -0.32934803 0.45877802 4.0074553 2.9886458 -2.437134
-2.0553224 -0.15203306 -1.7896523 -4.778298 1.7520295 2.6309319 0.06753471 0.85500515
0.8730077 -0.5420272 1.1154288 0.5583901 0.090474285 1.2335218 0.9295105 2.1064563
1.7554492 2.700444 -1.1048558 -1.3876584 -0.70315385 0.4524924 -0.041368637 -2.3151667
0.7639313 2.2541823 -0.43908828 0.65913385 1.5404754 -1.9237263 -0.44812015 1.0038083
-2.7108696 1.0459896 -2.7059972 2.1388397 2.664441 -4.781378 -1.8012868 1.7865522
1.4678359 -0.21660626 0.72783875 0.55820453 1.5682209 2.5293245 -2.0214245 -0.50272167
1.9694074 -3.0782208 -1.331226 -0.055777095 3.2612972 2.4633887 -2.5789332 -2.2453241
0.66600996 2.3112364 -2.9973059 0.4182541 -2.0760376 -1.6678225 1.3761941 -2.665313
00000000: d97c 48bf 6613 8c3f dd6b 133d 56e6 babf
00000010: 389c a9bf 2133 2840 1034 7f3f 7991 7cc0
00000020: dfce 4b40 5881 a440 8e00 b1bf 44eb 4bc0
00000030: 2ba6 c23e 3588 6140 9f95 18bf d76a d4c0
00000040: c684 1a40 5f60 5540 0077 07c0 85b0 4bbf
00000050: ee7b 96bf f57a e0bf c21a aa3f 6752 bd3f
00000060: 85bf 1840 2a9a 0e40 0661 c53d 8263 ed3e
00000070: 01b4 0abe ff37 e8bf b049 ee3f af60 1fc0
00000080: e1f9 2dbf 8752 4740 2693 4fbf 91a9 d73e
00000090: d56f 5740 515c 30c0 483d 80bf ae0f dcbf
000000a0: c977 91c0 4584 b53f 604d 13be d201 0d40
000000b0: 71bf 3a40 2ede 8ebf 5f79 febf a09e 613f
000000c0: fabe 67bf e197 fcbf f6a7 bb3e d2c2 83bf
000000d0: 2659 7e3f 7fb9 ed3e a9ff 1a40 ea52 273f
000000e0: 6a53 343f e1ff 223f 9730 eb3f 46fa 443f
000000f0: 0b86 2fc0 e6e0 22c0 c094 f4be 0925 8f40
00000100: 8537 a0bf fedf 0bc0 1770 f23c 9b0b 85c0
00000110: cc11 f2be 579c 0bc0 4fb2 44be 3b97 b440
00000120: cf67 f63f 27c9 08c0 261e 8fbf cbad 0b40
00000130: 8c33 28bf 4143 97bf bf2e b33f 53fb 623e
00000140: 34aa f6be 4998 68bf 84f5 85bf 7256 1440
00000150: 3dc6 473f d81a 6bc0 461e 2740 3fb4 0640
00000160: a36c 3ec0 2c0d 8c3f adb2 b33f 4593 0dc0
00000170: 7e52 c5be 0365 ad3f 9f59 fbbf c097 62bf
00000180: 239a 4840 1776 18c0 aab3 043f d697 a43f
00000190: e4ba d4bf f30d d5be f406 1e40 7e73 cebf
000001a0: 0767 92bf 76b2 0640 c035 e6be 6ae4 3dbf
000001b0: 22bd 73bf 7c84 b93e 1304 3040 dbb1 a9bf
000001c0: f6d4 8b3e 3169 dc3f 82a1 f63d 1e6b 94bf
000001d0: dbf4 383f 9f7e 43be 1bfa 4d3f 8085 15bf
000001e0: 2e8a 1b3f 2b1e be3f 8f6f b9bf 3aa1 f43f
000001f0: 6cd9 be3f be52 ddbd d161 1f40 2971 623f
00000200: 413d 85bf bf0a 3240 c9e3 3ac0 6cf5 96bf
00000210: 0111 fa3e 8aac 6cc0 07d6 1f40 27b3 913f
00000220: f78a 0840 794c 963e 9a09 ed3a 0672 8cbf
00000230: 38d6 e0bf 142f 2cc0 33e9 a3bf 2810 2cbd
00000240: cf9b 7b3f 0ef1 48c0 9eea d73f 5329 603f
00000250: 3a7f 53c0 9a86 0c40 bbec 3dbf c7fe 93bf
00000260: 74f5 ff3f 53db a3bf 567e 37bf e8c1 05bf
00000270: ec1a 62be edfd 4dbf fbbc 8fbf 3f4f ad3e
00000280: 09b0 fabe 63e6 16bf 05d7 c8bc 168d be3f
00000290: 6cab 35c0 65aa 5bbf d061 4740 4912 53c0
000002a0: 22f4 8fbf fcba 3740 825b d63f 22d9 23bf
000002b0: 9142 f13f 537e f5be 709a 6cc0 f24b 0940
000002c0: b1b5 ac3a d22e 03c0 d003 3a40 48d0 a5bf
000002d0: fcda e1bf 30ba acbf d70d 5c40 1ecb eb3f
000002e0: 1de8 d93f b123 1f3f 2e04 27bf 4ea0 a8be
000002f0: f4e4 ea3e 133d 8040 f945 3f40 01fa 1bc0
00000300: 678a 03c0 8eae 1bbe 5413 e5bf d1e7 98c0
00000310: 8142 e03f 3061 2840 a34f 8a3d 9ee1 5a3f
00000320: 6f7d 5f3f 4bc2 0abf 5fc6 8e3f a7f2 0e3f
00000330: 954a b93d 0be4 9d3f 66f4 6d3f 2ed0 0640
00000340: 8fb2 e03f 13d4 2c40 ea6b 8dbf ca9e b1bf
00000350: e401 34bf 15ad e73e 2972 29bd b12b 14c0
00000360: 0091 433f 8644 1040 2ed0 e0be ffbc 283f
00000370: 4c2e c53f aa3c f6bf 0170 e5be ca7c 803f
00000380: e37e 2dc0 fde2 853f 0f2f 2dc0 c0e2 0840
00000390: 3486 2a40 0c01 99c0 9190 e6bf bead e43f
000003a0: 0ce2 bb3f 08ce 5dbe a453 3a3f 7ee6 0e3f
000003b0: 76bb c83f 74e0 2140 055f 01c0 5eb2 00bf
000003c0: 8b15 fc3f 9201 45c0 9d65 aabf 8676 64bd
000003d0: 18b9 5040 29a8 1d40 3e0d 25c0 64b3 0fc0
000003e0: a17f 2a3f 4ceb 1340 dcd3 3fc0 6725 d63e
000003f0: cddd 04c0 357b d5bf 2127 b03f 7d94 2ac0

sequential_5/conv2d_16/Conv2D f4 [64, 6, 6, 32]
0.008598696 -0.0126943225 -0.015712952 -0.017740374 0.0008472989 0.01974505 -0.009365238 0.020261597
-0.04826949 -0.01836182 0.007110072 -0.020502988 0.0021237873 -0.01330801 0.0020944015 0.023792047
0.009240604 0.014645961 0.0031161457 0.014949807 -0.034351725 -0.0027507076 -0.023691278 -0.0028158086
-0.0010278856 0.030813728 -0.0028366025 0.011534927 -0.0042660404 0.035312988 0.031234449 -0.014846409
-0.006074313 -0.02679966 -0.023721961 -0.0115136765 -0.0068273363 -0.00057636393 -0.0019733564 -0.007905328
-0.0037400844 -0.008735636 0.011664674 0.011304876 0.00093988725 -0.0144082615 0.014198137 0.031923193
0.008665167 0.017510956 -0.050709378 -0.024457814 -0.0029728438 -0.03519789 -0.011399667 0.012449733
-0.019882703 0.019385109 0.0006152363 0.011908217 -0.0431222 0.024338096 0.0054294304 -0.011601003
-0.017194508 -0.017549152 -0.021270294 -0.013893347 -0.006117143 -0.0020040837 0.015316835 0.0014413565
-0.04188797 -0.016654843 -0.037345603 -0.026226081 -0.012735784 -0.0047306186 -0.004474252 0.024848724
-0.026697576 -0.0042166617 -0.035557795 -0.03547641 -0.009856018 -0.0043432047 -0.018085128 0.010324207
-0.033006296 -0.026556872 -0.0074303164 -0.0029329674 -0.021905908 0.012808413 -0.0047624353 -0.011511208
-0.0032519882 -0.00044828551 -0.025431938 -0.01715665 -0.02530836 -0.01994289 -0.0026193077 -0.007083639
-0.030595772 -0.038029265 -0.02782965 -0.015903443 -0.014701977 -0.013340167 -0.002923993 -0.0049315
-0.008848094 -0.020251017 0.016293483 0.0016741789 -0.014327265 0.006761532 -0.013675205 0.00040589712
-0.0089775 -0.02955522 -0.010212081 -0.0018015137 -0.05013909 -0.0047637387 -0.0013377352 -0.008467544
8.844389e-05 -0.014882221 -0.040436793 -0.014030913 -0.01951784 -0.008328228 -0.006580985 -0.018129012
-0.009109648 -0.0053017926 -0.032837566 -0.025583018 0.0021307077 -0.015456034 -0.049450293 -0.010419855
-0.02741817 -0.026879538 -0.02303519 -0.012159821 -0.014232008 -0.015944121 -0.013406073 -0.003887135
-0.025112338 -0.011153483 -0.011538566 -0.009838836 -0.041718353 -0.015719086 -0.003976798 -0.007862039
-0.011404108 -0.010369765 -0.027073927 -0.008287578 -0.012435727 -0.008610045 -0.011959436 -0.016391316
0.008397027 -0.0071952385 -0.004331618 0.01193749 -0.0033200525 -0.0071922787 -0.0015654655 0.014860556
-0.010928127 0.013133042 0.00069703173 -0.009492456 0.005909207 0.006890618 0.0011560855 -0.03337813
0.022428203 -0.010512463 -0.023189282 -0.016058734 -0.039251097 -0.0014179745 -0.0057650525 -0.007895865
0.0007850972 -0.00526471 0.005717779 -0.0036137197 -0.013362682 0.014461143 -0.0048249634 0.009688023
-0.01559917 -0.0039551514 0.0042876247 0.0023758889 -0.0031396637 -0.007988687 0.0075311256 0.016210075
0.004394923 0.011903408 0.009882615 0.014324655 -0.01654772 -0.0023505792 -0.011637295 -0.008762291
-0.004982234 0.01174239 -0.022400977 0.0017003455 0.03061317 0.017685803 0.017477728 -0.016708428
-0.025705764 -0.048449125 -0.010116761 0.008080742 -0.032241408 0.025429321 -0.0051053315 0.010201129
0.013845664 -0.019020692 0.025064636 0.020690681 -0.027743032 -0.002908317 0.026561871 0.030984439
-0.0007635811 0.028397607 -0.022096785 -0.039140157 -0.011692102 -0.0502558 -0.020860152 -0.003466698
-0.017695481 0.031851534 0.0038691594 -0.006365891 -0.0409797 0.014611816 -0.016811393 -0.02031918
00000000: 8ce1 0c3c d9fb 4fbc 73b8 80bc 4354 91bc
00000010: 441d 5e3a 5fc0 a13c a870 19bc a6fb a53c
00000020: 3bb6 45bd 876b 96bc 9bfb e83b e2f5 a7bc
00000030: 3d2f 0b3b d709 5abc 3a42 093b 8ae7 c23c
00000040: e765 173c 9df5 6f3c 4038 4c3b 09f0 743c
00000050: 65b4 0cbd 3745 34bb 3614 c2bc 6e89 38bb
00000060: 1eba 86ba 126d fc3c 4be6 39bb fefc 3c3c
00000070: 24ca 8bbb 5aa4 103d 63df ff3c 5a3e 73bc
00000080: 080b c7bb f68a dbbc 8f54 c2bc dca3 3cbc
00000090: d9b7 dfbb 2117 17ba 6d53 01bb 5985 01bc
000000a0: 341c 75bb ea1f 0fbc 301d 3f3c 1638 393c
000000b0: c462 763a a110 6cbc 4e9f 683c e5c1 023d
000000c0: 58f8 0d3c 2373 8f3c a3b4 4fbd c15b c8bc
000000d0: 0bd4 42bb aa2b 10bd abc5 3abc f7f9 4b3c
000000e0: 0de1 a2bc 85cd 9e3c cf47 213a af1a 433c
000000f0: e7a0 30bd b060 c73c 5de9 b13b 2212 3ebc
00000100: 7fdb 8cbc 3dc3 8fbc 0a3f aebc eca0 63bc
00000110: 5172 c8bb f256 03bb 76f3 7a3c e6eb bc3a
00000120: b892 2bbd bd6f 88bc b4f7 18bd 14d8 d6bc
00000130: c0a9 50bc 4e03 9bbb bf9c 92bb 8d8f cb3c
00000140: e0b4 dabc ec2b 8abb 0da5 11bd b64f 11bd
00000150: 237b 21bc 7151 8ebb 4327 94bc dd26 293c
00000160: 9c31 07bd cc8d d9bc 037a f3bb 0737 40bb
00000170: 0574 b3bc 61da 513c 340e 9cbb 8199 3cbc
00000180: 4f1f 55bb dd07 ebb9 a456 d0bc 1a8c 8cbc
00000190: 7a53 cfbc 465f a3bc b1a8 2bbb df1d e8bb
000001a0: fca3 fabc 93c4 1bbd 02fb e3bc f047 82bc
000001b0: 90e0 70bc b790 5abc 76a0 3fbb 6c98 a1bb
000001c0: 99f7 10bc 76e5 a5bc e979 853c 1f70 db3a
000001d0: e8bc 6abc d78f dd3b f80d 60bc 97ce d439
000001e0: 5d16 13bc ca1d f2bc 9250 27bc c520 ecba
000001f0: a55e 4dbd 2319 9cbb f256 afba 74bb 0abc
00000200: f47a b938 8fd4 73bc 0da1 25bd eae1 65bc
00000210: e1e3 9fbc 1f73 08bc 4ea5 d7bb 4b83 94bc
00000220: a240 15bc a9ba adbb af80 06bd 7a93 d1bc
00000230: 58a3 0b3b 4e3b 7dbc 648c 4abd 0ab8 2abc
00000240: 129c e0bc 7a32 dcbc 4bb4 bcbc fc39 47bc
00000250: 5e2d 69bc 3f9d 82bc 25a5 5bbc 4ebf 7ebb
00000260: 64b8 cdbc 19bd 36bc 410c 3dbc 1233 21bc
00000270: dde0 2abd 50c5 80bc cd4f 82bb c8cf 00bc
00000280: 4cd8 3abc f2e5 29bc 24ca ddbc 9fc8 07bc
00000290: 38bf 4bbc 2511 0dbc 83f1 43bc 1547 86bc
000002a0: af93 093c 09c6 ebbb 3ff0 8dbb 7695 433c
000002b0: 3d95 59bb 35ad ebbb 4e30 cdba b179 733c
000002c0: e30b 33bc f82b 573c 02b9 363a 3f86 1bbc
000002d0: 05a2 c13b b1ca e13b cb87 973a 82b7 08bd
000002e0: 5abb b73c 773c 2cbc 73f7 bdbc 9b8d 83bc
000002f0: c2c5 20bd 54db b9ba c4e8 bcbb a85d 01bc
00000300: fbce 4d3a 9783 acbb 355c bb3b 28d4 6cbb
00000310: 27ef 5abc 6eee 6c3c ba1a 9ebb 83ba 1e3c
00000320: a993 7fbc 379a 81bb 347f 8c3b cdb4 1b3b
00000330: d1c2 4dbb fbe2 02bc a9c7 f63b feca 843c
00000340: 4903 903b 8306 433c b1ea 213c f5b1 6a3c
00000350: 168f 87bc 2d0c 1abb 5aaa 3ebc b68f 0fbc
00000360: 0242 a3bb 2763 403c 4182 b7bc 21de de3a
00000370: 78c8 fa3c d1e1 903c 742d 8f3c 1de0 88bc
00000380: e594 d2bc 9772 46bd c5c0 25bc 1765 043c
00000390: 910f 04bd 2751 d03c a04a a7bb a322 273c
000003a0: edd8 623c 48d1 9bbc 5a54 cd3c 817f a93c
000003b0: 5b45 e3bc 7699 3ebb 4898 d93c 14d3 fd3c
000003c0: 0f2b 48ba 19a2 e83c 5104 b5bc 6e51 20bd
000003d0: 3b90 3fbc 07d9 4dbd e9e2 aabc 8b31 63bb
000003e0: 1df6 90bc c176 023d b991 7d3b f798 d0bb
000003f0: 54da 27bd 6666 6f3c 0cb8 89bc 6974 a6bc

sequential_5/conv2d_17/Conv2D f4 [64, 6, 6, 64]
-0.02581538 -0.0034655924 -0.040148914 -0.029724855 -0.025859598 -0.0072903596 -0.018943189 -0.029082526
-0.0045708655 0.009887153 -0.018307813 -0.019890917 -0.0137653 -0.028514812 -0.00911144 -0.029037075
0.013559863 -0.022441104 -0.0040458455 -0.023769867 0.0027278548 -0.009728271 -0.029345695 -0.019073134
-0.019498637 -0.013111613 0.013500147 -0.0095273815 -0.033637445 -0.025435913 -0.018345652 -0.007410194
-0.018633233 -0.006035701 -0.007707813 -0.03143663 0.034148548 -0.028723912 0.012766879 -0.03594071
-0.028953997 -0.042366825 -0.03785862 -0.015459374 -0.020411154 -0.048874542 -0.008695187 0.037595272
-0.0053948793 -0.010082998 0.09352733 -0.023261515 -0.021788571 -0.034479726 -0.018409595 -0.036709465
-0.029010557 -0.024491569 -0.0023731408 -0.019251207 -0.004579067 -0.02980295 -0.011706999 -0.010411653
-0.012128976 -0.024017427 0.0030590163 0.0517642 -0.00954362 0.09910016 -0.024014963 -0.024286594
0.01212319 0.004348645 -0.03647314 0.0041690413 0.030058416 -0.008200831 -0.014212939 0.0024405262
-0.005933093 -0.016058061 0.010790121 -0.018044624 -0.0026792763 -0.02341355 -0.024684161 -0.049363013
-0.023486285 -0.022986177 -0.052308176 0.042679075 -0.04830349 -0.025626367 -0.008141534 0.078249976
0.0036391125 -0.011666373 -0.010087782 0.07853309 0.036318928 -0.030156858 -0.021266112 0.0560715
0.001168343 0.01951825 -0.031194787 -0.00727738 -0.0065953685 -0.02067505 0.037846643 0.008022193
-0.018453164 -0.029351648 0.004984778 -0.038581803 -0.032732874 -0.02635099 -0.009182729 -0.0012556047
-0.054698315 -0.008180144 -0.011879078 0.005673689 -0.019473048 -0.046995107 -0.012436088 -0.01808598
-0.020291742 -0.008659838 -0.029088123 0.17279252 -0.009228655 0.04878431 -0.03518977 -0.022276398
0.017138323 -0.0028493484 -0.046863522 0.06352733 0.024503557 0.007003823 0.009769356 0.01105538
0.017476944 -0.030490778 0.0013615642 -0.025047066 -0.018265575 -0.0145169385 -0.02266923 -0.013975996
-0.011308668 -0.032820582 -0.017749526 0.093719795 -0.041443806 0.0015502755 0.020375263 0.06675629
-0.0900877 0.012870962 -0.028812556 -0.017325602 0.061190866 0.020901734 -0.044784397 0.009584446
-0.033924006 -0.007349411 -0.032474454 -0.032407723 0.030302176 -0.010817524 -0.0349473 -0.027981449
0.021062838 -0.023050558 -0.046342958 -0.035496384 -0.017559078 -0.010164942 -0.055680543 0.019893533
0.011268889 -0.028350407 0.011051429 0.054842897 -0.00307939 -0.009450638 -0.014875043 -0.029147116
-0.06240128 0.0014358341 -0.04151526 -0.018635217 0.05070389 -0.11450375 0.008827868 0.050014142
-0.034831725 -0.10812053 -0.024936197 -0.12181008 0.0037506677 -0.063135654 -0.1255666 -0.036473688
-0.010780835 0.007694361 0.041984007 0.06332958 -0.07732353 0.08291832 0.031405803 -0.060437325
-0.00897615 0.037580144 0.10176151 -0.09436411 -0.03854703 0.01305381 -0.016717069 -0.10919028
-0.0748221 0.014979334 -0.0012138595 -0.016381036 0.031236304 0.04364316 -0.06986792 0.098563574
0.024243183 -0.021861367 -0.06372957 -0.012693301 -0.052485354 0.018149214 -0.03284079 0.08461197
-0.03318108 -0.039754093 -0.014774109 -0.023918515 0.03987549 0.04898914 -0.041468196 -0.083756655
0.02334554 -0.03278101 0.114507385 0.09031975 -0.031048676 0.036849022 0.0010900637 0.008097507
00000000: c77a d3bc fe1e 63bb 3073 24bd 8a81 f3bc
00000010: 82d7 d3bc f8e3 eebb bf2e 9bbc 7a3e eebc
00000020: 33c7 95bb bafd 213c 44fa 95bc 47f2 a2bc
00000030: da87 61bc e597 e9bc 2648 15bc 29df edbc
00000040: 302a 5e3c 68d6 b7bc 0393 84bb 06b9 c2bc
00000050: cfc5 323b 5363 1fbc 6266 f0bc 433f 9cbc
00000060: 9bbb 9fbc 17d2 56bc b82f 5d3c bc18 1cbc
00000070: 6bc7 09bd fa5e d0bc 9f49 96bc 36d1 f2bb
00000080: b9a4 98bc 21c7 c5bb d291 fcbb b2c3 00bd
00000090: 59df 0b3d 694e ebbc 2c2c 513c 9136 13bd
000000a0: ef30 edbc d688 2dbd a411 1bbd 5049 7dbc
000000b0: 4b35 a7bc ac30 48bd 4276 0ebc 80fd 193d
000000c0: 87c7 b0bb 2933 25bc 428b bf3d ef8e bebc
000000d0: f27d b2bc 9d3a 0dbd b8cf 96bc aa5c 16bd
000000e0: 8ca7 edbc 8ba2 c8bc b286 1bbb b5b4 9dbc
000000f0: 000c 96bb 5125 f4bc b6ce 3fbc a395 2abc
00000100: 9db8 46bc 32c0 c4bc c779 483b b306 543d
00000110: d85c 1cbc 06f5 ca3d 07bb c4bc aef4 c6bc
00000120: 58a0 463c 147f 8e3b dc64 15bd 749c 883b
00000130: 113d f63c c75c 06bc 63dd 68bc 3cf1 1f3b
00000140: 646a c2bb 328c 83bc 0cc9 303c 52d2 93bc
00000150: cc96 2fbb c6cd bfbc 7036 cabc df30 4abd
00000160: 4f66 c0bc 824d bcbc 1941 56bd 41d0 2e3d
00000170: e1d9 45bd 63ee d1bc 1264 05bc 8641 a03d
00000180: 2d7e 6e3b 5124 3fbc 3947 25bc f5d5 a03d
00000190: 28c3 143d 840b f7bc 4536 aebc 3bab 653d
000001a0: 1623 993a bde4 9f3c 368c ffbc 1777 eebb
000001b0: f61d d8bb b95e a9bc 1505 1b3d 846f 033c
000001c0: 172b 97bc de72 f0bc 5957 a33b f407 1ebd
000001d0: e812 06bd 08de d7bc 2873 16bc 1a93 a4ba
000001e0: 570b 60bd 0306 06bc 77a0 42bc 5aea b93b
000001f0: f185 9fbc f17d 40bd bcc0 4bbc 0d29 94bc
00000200: de3a a6bc fee1 0dbc 374a eebc 86f0 303e
00000210: c933 17bc 0fd2 473d 2623 10bd fe7c b6bc
00000220: ab65 8c3c 22bc 3abb f7f3 3fbd 9e1a 823d
00000230: afbb c83c 5380 e53b a60f 203c a021 353c
00000240: cf2b 8f3c ccc7 f9bc 8376 b23a 812f cdbc
00000250: b0a1 95bc 74d8 6dbc d2b4 b9bc 93fb 64bc
00000260: fe47 39bc e06e 06bd 7467 91bc 2af0 bf3d
00000270: fbc0 29bd 9d32 cb3a 06ea a63c 86b7 883d
00000280: e67f b8bd bae0 523c 4f08 ecbc 6cee 8dbc
00000290: 46a3 7a3d 1d3a ab3c d86f 37bd 1508 1d3c
000002a0: e6f3 0abd 54d3 f0bb ef03 05bd f6bd 04bd
000002b0: 453c f83c fc3b 31bc e624 0fbd 5a39 e5bc
000002c0: f98b ac3c 86d4 bcbc 1dd2 3dbd a864 11bd
000002d0: 0ed8 8fbc db8a 26bc 4811 64bd c3f7 a23c
000002e0: 25a1 383c 1d3f e8bc 0e11 353c f2a2 603d
000002f0: 97cf 49bb d9d6 1abc 74b6 73bc efc5 eebc
00000300: 7c98 7fbd 9932 bc3a e80b 2abd e2a8 98bc
00000310: e2ae 4f3d f180 eabd c3a2 103c a1db 4c3d
00000320: b6ab 0ebd 4c6e ddbd ff46 ccbc 9077 f9bd
00000330: c3cd 753b 444d 81bd 8894 00be 6f65 15bd
00000340: 19a2 30bc fa20 fc3b 6cf7 2b3d f0b2 813d
00000350: cd5b 9ebd 15d1 a93d 5fa3 003d 218d 77bd
00000360: b410 13bc a3ed 193d 5768 d03d f841 c1bd
00000370: 7ee3 1dbd a6df 553c 3cf2 88bc 279f dfbd
00000380: 543c 99bd e16b 753c 5e1a 9fba 8631 86bc
00000390: 47e3 ff3c 2cc3 323d e916 8fbd b3db c93d
000003a0: a499 c63c 9c16 b3bc a684 82bd 90f7 4fbc
000003b0: e2fa 56bd a9ad 943c 1084 06bd 0a49 ad3d
000003c0: e2e8 07bd 30d5 22bd 1b0f 72bc c3f0 c3bc
000003d0: 7b54 233d d6a8 483d 8eda 29bd 9c88 abbd
000003e0: 253f bf3c 6145 06bd d982 ea3d 90f9 b83d
000003f0: cb59 febc 00ef 163d 78e0 8e3a 68ab 043c
