Lab 3/sign_mnist_quant_dyn.tflite (tflite, 235424 bytes, 9 tensors)

sequential_5/dense_21/BiasAdd/ReadVariableOp/resource f4 [25]
0	0xbe2fc4bf	-0.17164896
1	0x3dd646ce	0.10462724
2	0xbec232ef	-0.37929484
3	0x3e40d591	0.18831469
4	0x3e01f78d	0.1269209
5	0x3e5ed3c7	0.21760474
6	0xbdd244cd	-0.10267029
7	0x3cb4022e	0.021973696
8	0x3eb8e4a2	0.36111933
9	0xbecb7595	-0.39738145
10	0xbe3a27c6	-0.18179235
11	0xbdea0067	-0.11425858
12	0xbd53e7af	-0.051734623
13	0xbea61d79	-0.3244436
14	0xbe7934ae	-0.24336502
15	0x3e8ef192	0.2791868
16	0xbee26389	-0.44216564
17	0x3d18178e	0.03713184
18	0x3da2e888	0.07954508
19	0xbd97fce7	-0.07421284
20	0x3e5da171	0.21643616
21	0x3ec09719	0.37615278
22	0x3ec9ac1f	0.3938913
23	0x3ea6c065	0.3256866
24	0xbea87912	-0.3290487

sequential_5/batch_normalization_22/FusedBatchNormV3 f4 [32]
0	0xbc7bacf0	-0.015361056
1	0xbfc31882	-1.5241854
2	0xbf45e48b	-0.77301854
3	0xbe51fbaf	-0.20506166
4	0x3e0f07f2	0.13967875
5	0x40038566	2.055017
6	0xbf6cd26c	-0.9250858
7	0x3e857f9c	0.2607392
8	0xbeb54c28	-0.35409665
9	0xbe89a6f1	-0.2688518
10	0x3f63f157	0.8904013
11	0x3e242236	0.16028675
12	0xbfad8a8b	-1.3557905
13	0xc02d01c2	-2.7032323
14	0xbe4e7b62	-0.20164254
15	0x3fdae52e	1.710119
16	0x3ecb2c9c	0.39682472
17	0x402937e0	2.6440353
18	0xbf050ca1	-0.51972395
19	0x3f04221c	0.51614547
20	0xc03ad314	-2.9191332
21	0xbebdc78d	-0.37066308
22	0xc05c3965	-3.441003
23	0xbf3ec98c	-0.74526286
24	0xbe59621e	-0.21228835
25	0x3ea4f0af	0.32214877
26	0xbe356547	-0.17714415
27	0xbf29d745	-0.663441
28	0xbe4aa59e	-0.1978974
29	0x3e3db0b0	0.18524432
30	0xbdde5de1	-0.1085775
31	0xbf2fffdc	-0.68749785

sequential_5/batch_normalization_23/FusedBatchNormV3 f4 [64]
0	0xbc186600	-0.009301662
1	0x3dfdcb48	0.123922884
2	0x3d2106b0	0.03931302
3	0xbd104100	-0.03521824
4	0xbd54f880	-0.0519948
5	0x3e10e72e	0.14150688
6	0xbb5d1b00	-0.0033738017
7	0x3f3fc390	0.7490778
8	0x3beb5780	0.0071820617
9	0xbe7b4e40	-0.24541569
10	0x3d2e3160	0.042527556
11	0xbe0614f0	-0.13093925
12	0xbf82b718	-1.0212126
13	0xbdf47c90	-0.11937821
14	0xbe15fa66	-0.146463
15	0xbf0718fe	-0.5277251
16	0xbe8175c4	-0.2528516
17	0x3f13b6b9	0.5770069
18	0x3e2b4838	0.16726768
19	0x3f872896	1.0559261
20	0x3e15a274	0.14612752
21	0x3e48b918	0.19601858
22	0xbd8c0eb8	-0.06838745
23	0x3e6adf00	0.2293663
24	0xbe60a5f6	-0.21938309
25	0x3efcfe9c	0.49413002
26	0x3eb7c8ac	0.35895288
27	0x3f0d60dd	0.55225927
28	0xbe2bcf4c	-0.16778296
29	0xbefff738	-0.499933
30	0xbf1f3473	-0.62189406
31	0xbe8b9f41	-0.2726994
32	0xbe9348b6	-0.28766412
33	0xbf200404	-0.6250613
34	0xbe33fbe4	-0.17576557
35	0x3eb68bb0	0.35653448
36	0xbe541312	-0.207104
37	0x3f60c9df	0.8780803
38	0x3e668520	0.2251172
39	0xbe5a8990	-0.21341538
40	0x3f8367cc	1.0266051
41	0xbea4aba4	-0.321622
42	0x3e9850d6	0.29749173
43	0x3e3535f0	0.17696357
44	0x3f14cf35	0.5812867
45	0xbe888cc4	-0.26669896
46	0xbcaa4340	-0.02078402
47	0xbe849a62	-0.25899035
48	0xbf42ba5a	-0.760656
49	0xbe20ef28	-0.15716231
50	0xbdca6180	-0.09881878
51	0x3f05b81f	0.5223407
52	0x3f878ddd	1.0590168
53	0xbf4c39c4	-0.79775643
54	0x3e59fb9c	0.21287388
55	0xbe9498e4	-0.29022896
56	0x3d8d2a60	0.06892848
57	0x3e936890	0.28790712
58	0x3f531b5e	0.82463634
59	0xbe260768	-0.16213763
60	0xbca67e80	-0.020323992
61	0xbd6c53a0	-0.05769694
62	0xbe7a6fec	-0.24456757
63	0x3f0d372b	0.55162305

sequential_5/batch_normalization_24/FusedBatchNormV3 f4 [64]
0	0x3eea53cb	0.45767054
1	0x3cb4f036	0.022087198
2	0xbd9bba74	-0.076039225
3	0xbda6e433	-0.08148994
4	0x3f44eacc	0.7692077
5	0x3f1d3df7	0.61422676
6	0x3dfa5059	0.12222356
7	0xbe06799a	-0.13132325
8	0xbeb8a3e2	-0.36062533
9	0x3ec2b4ae	0.38028473
10	0xbe261269	-0.1621796
11	0xbdf199aa	-0.11796887
12	0xbe7a0c17	-0.24418674
13	0xbe8a0476	-0.26956528
14	0x3e6a0d1e	0.22856566
15	0x3e72e006	0.2371827
16	0xbe43e2d5	-0.19129498
17	0xbec425e3	-0.38310155
18	0x3f90f2c5	1.1324087
19	0x3ef8dd58	0.48606372
20	0x3f15f4e8	0.5857682
21	0x3e578ec5	0.21050556
22	0xbed7a688	-0.4211924
23	0xbdc0b231	-0.09408987
24	0x3eb5592a	0.3541959
25	0xbf832105	-1.0244452
26	0x3f26d5e9	0.6517015
27	0x3e89b7fa	0.26898175
28	0x3e88a9ec	0.2669214
29	0xbda2b147	-0.07943969
30	0xbd243390	-0.040088236
31	0xbe02ad09	-0.1276132
32	0x3eaa616b	0.3327745
33	0xbe9be5c8	-0.30448747
34	0xbeb2b1c8	-0.3490126
35	0xbf0d8420	-0.5527973
36	0x3ead6216	0.33863896
37	0x3e904d68	0.28184056
38	0xbd0862d2	-0.033297367
39	0xbe61dd93	-0.2205718
40	0x3c527ab8	0.012846641
41	0x3eda268c	0.42607534
42	0xbf64c5cb	-0.8936431
43	0x3f063a1e	0.5243243
44	0x3e4c1e9d	0.19933553
45	0xbf134046	-0.5751995
46	0x3cc4eba0	0.024038136
47	0x3e028d7c	0.12749285
48	0x3cba26e4	0.022723623
49	0xbe8ad4f2	-0.2711559
50	0xbcc35ec0	-0.023848891
51	0x3d3395c0	0.043843985
52	0xbf2248d6	-0.6339239
53	0xbdccdde2	-0.10003258
54	0x3ea4c041	0.32177928
55	0xbf363e9c	-0.71189284
56	0xbf471124	-0.7776053
57	0x3e919b92	0.28439003
58	0x3dfdf258	0.12399739
59	0xbeed90bf	-0.46399495
60	0x3e1b98d4	0.15195018
61	0xbe1467d8	-0.14492738
62	0x3dcf2fb0	0.101165175
63	0xbf7ccf28	-0.98753595

sequential_5/dense_20/MatMul i1 [64, 64] scale=0.0073635 zero_point=0
0	0x19	0.1840875
1	0xfc	-0.029454
2	0xc5	-0.4344465
3	0xbb	-0.5080815
4	0x24	0.265086
5	0x39	0.41971952
6	0xce	-0.368175
7	0x42	0.485991
8	0xf6	-0.073635
9	0x2b	0.3166305
10	0xc9	-0.4049925
11	0xe1	-0.2282685
12	0xcb	-0.3902655
13	0x65	0.7437135
14	0x08	0.058908
15	0xe3	-0.21354151
16	0x09	0.0662715
17	0xd5	-0.3166305
18	0xfa	-0.044181
19	0x37	0.4049925
20	0x2a	0.309267
21	0xd3	-0.3313575
22	0xb0	-0.58908
23	0x23	0.2577225
24	0xf6	-0.073635
25	0xd7	-0.30190352
26	0x26	0.279813
27	0x18	0.176724
28	0x0b	0.0809985
29	0xf9	-0.051544502
30	0x0a	0.073635
31	0xe1	-0.2282685
32	0x1d	0.21354151
33	0xee	-0.132543
34	0xec	-0.14727
35	0xf6	-0.073635
36	0x20	0.235632
37	0xb6	-0.544899
38	0x4e	0.574353
39	0x36	0.397629
40	0xd6	-0.309267
41	0xdf	-0.2429955
42	0xfc	-0.029454
43	0x1e	0.220905
44	0x1e	0.220905
45	0x2a	0.309267
46	0xed	-0.1399065
47	0x13	0.1399065
48	0x1f	0.2282685
49	0x10	0.117816
50	0x42	0.485991
51	0x2e	0.338721
52	0x18	0.176724
53	0x07	0.051544502
54	0xc0	-0.471264
55	0xf4	-0.088362
56	0xcb	-0.3902655
57	0xf9	-0.051544502
58	0xf9	-0.051544502
59	0x01	0.0073635
60	0xc2	-0.456537
61	0xf7	-0.0662715
62	0xfa	-0.044181
63	0x1a	0.191451
64	0xd3	-0.3313575
65	0x2d	0.3313575
66	0xd5	-0.3166305
67	0x0b	0.0809985
68	0xe9	-0.1693605
69	0x14	0.14727
70	0xc9	-0.4049925
71	0x3f	0.4639005
72	0xa1	-0.6995325
73	0x45	0.5080815
74	0xdc	-0.265086
75	0xcc	-0.382902
76	0x08	0.058908
77	0xfa	-0.044181
78	0x2c	0.323994
79	0xf4	-0.088362
80	0xec	-0.14727
81	0x1b	0.1988145
82	0xf1	-0.1104525
83	0x35	0.3902655
84	0xf3	-0.0957255
85	0xdf	-0.2429955
86	0xe0	-0.235632
87	0xbc	-0.500718
88	0x15	0.1546335
89	0x16	0.161997
90	0x27	0.2871765
91	0x46	0.515445
92	0xe8	-0.176724
93	0xf1	-0.1104525
94	0xe2	-0.220905
95	0x2c	0.323994
96	0x1a	0.191451
97	0x0a	0.073635
98	0xec	-0.14727
99	0xf6	-0.073635
100	0xd5	-0.3166305
101	0xcd	-0.3755385
102	0x48	0.530172
103	0xf1	-0.1104525
104	0xd3	-0.3313575
105	0xf9	-0.051544502
106	0xf6	-0.073635
107	0x2a	0.309267
108	0x32	0.368175
109	0x40	0.471264
110	0x23	0.2577225
111	0x28	0.29454
112	0x33	0.3755385
113	0x08	0.058908
114	0x20	0.235632
115	0x57	0.6406245
116	0xf7	-0.0662715
117	0x3a	0.42708302
118	0x05	0.0368175
119	0xe5	-0.1988145
120	0xc6	-0.42708302
121	0x1b	0.1988145
122	0x08	0.058908
123	0xda	-0.279813
124	0xe4	-0.20617801
125	0xf5	-0.0809985
126	0xea	-0.161997
127	0x29	0.30190352
128	0x3f	0.4639005
129	0x1b	0.1988145
130	0x35	0.3902655
131	0x1a	0.191451
132	0xea	-0.161997
133	0xdc	-0.265086
134	0x15	0.1546335
135	0xb9	-0.5228085
136	0xfe	-0.014727
137	0x02	0.014727
138	0x39	0.41971952
139	0xe4	-0.20617801
140	0x08	0.058908
141	0xd5	-0.3166305
142	0x2e	0.338721
143	0xe6	-0.191451
144	0x06	0.044181
145	0x0d	0.0957255
146	0x05	0.0368175
147	0x96	-0.780531
148	0xed	-0.1399065
149	0x24	0.265086
150	0xf1	-0.1104525
151	0x02	0.014727
152	0x18	0.176724
153	0x18	0.176724
154	0xbc	-0.500718
155	0x0c	0.088362
156	0x27	0.2871765
157	0x0d	0.0957255
158	0xf3	-0.0957255
159	0x17	0.1693605
160	0xdd	-0.2577225
161	0xe4	-0.20617801
162	0x10	0.117816
163	0x43	0.4933545
164	0xe2	-0.220905
165	0x14	0.14727
166	0x26	0.279813
167	0xe4	-0.20617801
168	0x25	0.2724495
169	0x06	0.044181
170	0x03	0.0220905
171	0xeb	-0.1546335
172	0x05	0.0368175
173	0xf9	-0.051544502
174	0x34	0.382902
175	0xa7	-0.6553515
176	0xe4	-0.20617801
177	0x18	0.176724
178	0x02	0.014727
179	0x0d	0.0957255
180	0x06	0.044181
181	0xc4	-0.44181
182	0xf6	-0.073635
183	0xa2	-0.692169
184	0x07	0.051544502
185	0x1c	0.20617801
186	0x2e	0.338721
187	0xb7	-0.5375355
188	0x24	0.265086
189	0xcf	-0.3608115
190	0xdf	-0.2429955
191	0xda	-0.279813
192	0x0c	0.088362
193	0x0a	0.073635
194	0x0b	0.0809985
195	0x0d	0.0957255
196	0x08	0.058908
197	0x01	0.0073635
198	0xd9	-0.2871765
199	0xf9	-0.051544502
200	0x06	0.044181
201	0xde	-0.250359
202	0x0e	0.103089005
203	0x04	0.029454
204	0x0b	0.0809985
205	0xfb	-0.0368175
206	0xda	-0.279813
207	0xd8	-0.29454
208	0xf0	-0.117816
209	0x01	0.0073635
210	0x0c	0.088362
211	0x0e	0.103089005
212	0xf7	-0.0662715
213	0xdf	-0.2429955
214	0xf3	-0.0957255
215	0xe5	-0.1988145
216	0xfd	-0.0220905
217	0xdc	-0.265086
218	0xf1	-0.1104525
219	0xf1	-0.1104525
220	0xec	-0.14727
221	0xf6	-0.073635
222	0x04	0.029454
223	0xea	-0.161997
224	0xe7	-0.1840875
225	0xd5	-0.3166305
226	0x09	0.0662715
227	0xee	-0.132543
228	0xfd	-0.0220905
229	0xdb	-0.2724495
230	0xe9	-0.1693605
231	0xd6	-0.309267
232	0xe3	-0.21354151
233	0xdc	-0.265086
234	0xee	-0.132543
235	0xe6	-0.191451
236	0xe6	-0.191451
237	0xed	-0.1399065
238	0x00	0.0
239	0x04	0.029454
240	0x0c	0.088362
241	0xfc	-0.029454
242	0xdd	-0.2577225
243	0xf0	-0.117816
244	0xff	-0.0073635
245	0xda	-0.279813
246	0xf0	-0.117816
247	0x05	0.0368175
248	0xfe	-0.014727
249	0x09	0.0662715
250	0xf5	-0.0809985
251	0x03	0.0220905
252	0x08	0.058908
253	0xf2	-0.103089005
254	0xf6	-0.073635
255	0xde	-0.250359

sequential_5/dense_21/MatMul i1 [25, 64] scale=0.012551109 zero_point=0
0	0x19	0.31377774
1	0x1a	0.32632884
2	0xde	-0.42673773
3	0x0d	0.16316442
4	0x08	0.100408874
5	0x10	0.20081775
6	0xec	-0.2510222
7	0x02	0.025102219
8	0x23	0.43928882
9	0x0f	0.18826663
10	0xb4	-0.9538843
11	0xf4	-0.15061331
12	0xf4	-0.15061331
13	0xf2	-0.17571554
14	0x09	0.11295998
15	0xf5	-0.13806221
16	0xd4	-0.55224884
17	0xfa	-0.075306654
18	0xf1	-0.18826663
19	0xc4	-0.75306654
20	0xe2	-0.37653327
21	0xf7	-0.11295998
22	0x0c	0.15061331
23	0xd1	-0.58990216
24	0xf5	-0.13806221
25	0xa6	-1.1295998
26	0x08	0.100408874
27	0xd8	-0.5020444
28	0x95	-1.3429687
29	0xfd	-0.037653327
30	0x20	0.4016355
31	0xeb	-0.2635733
32	0xe7	-0.31377774
33	0x07	0.08785777
34	0xd8	-0.5020444
35	0x00	0.0
36	0x08	0.100408874
37	0xfd	-0.037653327
38	0x0c	0.15061331
39	0xef	-0.21336886
40	0xc9	-0.690311
41	0x04	0.050204437
42	0x04	0.050204437
43	0x0b	0.13806221
44	0x05	0.06275555
45	0xf1	-0.18826663
46	0xe7	-0.31377774
47	0x0e	0.17571554
48	0x1e	0.37653327
49	0x19	0.31377774
50	0xfc	-0.050204437
51	0xfa	-0.075306654
52	0x03	0.037653327
53	0xbc	-0.85347545
54	0xf7	-0.11295998
55	0xf2	-0.17571554
56	0x03	0.037653327
57	0x18	0.30122662
58	0x12	0.22591996
59	0xfc	-0.050204437
60	0xd2	-0.57735103
61	0xed	-0.23847108
62	0x0b	0.13806221
63	0xee	-0.22591996
64	0xbd	-0.8409243
65	0xc4	-0.75306654
66	0xdb	-0.46439105
67	0xfc	-0.050204437
68	0xf3	-0.16316442
69	0x20	0.4016355
70	0x1a	0.32632884
71	0x0f	0.18826663
72	0xd0	-0.60245323
73	0xfe	-0.025102219
74	0x12	0.22591996
75	0x12	0.22591996
76	0xf9	-0.08785777
77	0x09	0.11295998
78	0x11	0.21336886
79	0xfb	-0.06275555
80	0x0e	0.17571554
81	0xe7	-0.31377774
82	0xff	-0.012551109
83	0xd9	-0.48949325
84	0xd5	-0.5396977
85	0xec	-0.2510222
86	0x0b	0.13806221
87	0x1e	0.37653327
88	0xf1	-0.18826663
89	0xb3	-0.96643543
90	0x04	0.050204437
91	0xd5	-0.5396977
92	0x0d	0.16316442
93	0x11	0.21336886
94	0xdd	-0.43928882
95	0x1b	0.33887994
96	0xf7	-0.11295998
97	0xfd	-0.037653327
98	0xcd	-0.64010656
99	0xef	-0.21336886
100	0x00	0.0
101	0xeb	-0.2635733
102	0xf3	-0.16316442
103	0xfd	-0.037653327
104	0x12	0.22591996
105	0x11	0.21336886
106	0xf2	-0.17571554
107	0xee	-0.22591996
108	0xf9	-0.08785777
109	0xf2	-0.17571554
110	0x00	0.0
111	0xde	-0.42673773
112	0xb6	-0.9287821
113	0xef	-0.21336886
114	0x0e	0.17571554
115	0xfe	-0.025102219
116	0x04	0.050204437
117	0x0b	0.13806221
118	0x07	0.08785777
119	0xf0	-0.20081775
120	0xeb	-0.2635733
121	0x9a	-1.2802131
122	0xfa	-0.075306654
123	0x02	0.025102219
124	0xd7	-0.5145955
125	0x07	0.08785777
126	0xf5	-0.13806221
127	0x04	0.050204437
128	0xd3	-0.5647999
129	0xd4	-0.55224884
130	0x1d	0.36398217
131	0xef	-0.21336886
132	0x03	0.037653327
133	0x15	0.2635733
134	0xda	-0.47694215
135	0xfc	-0.050204437
136	0x25	0.46439105
137	0xfc	-0.050204437
138	0xed	-0.23847108
139	0xf3	-0.16316442
140	0x19	0.31377774
141	0x12	0.22591996
142	0x08	0.100408874
143	0x0d	0.16316442
144	0xf9	-0.08785777
145	0xf1	-0.18826663
146	0x0d	0.16316442
147	0x1d	0.36398217
148	0xfb	-0.06275555
149	0x00	0.0
150	0x11	0.21336886
151	0xcc	-0.6526577
152	0x0e	0.17571554
153	0xc9	-0.690311
154	0x0b	0.13806221
155	0x1b	0.33887994
156	0xf9	-0.08785777
157	0x02	0.025102219
158	0xe0	-0.4016355
159	0xef	-0.21336886
160	0x01	0.012551109
161	0xf8	-0.100408874
162	0x0a	0.1255111
163	0x07	0.08785777
164	0x0f	0.18826663
165	0x12	0.22591996
166	0xfa	-0.075306654
167	0x02	0.025102219
168	0xdc	-0.45183992
169	0x0a	0.1255111
170	0xfe	-0.025102219
171	0x0c	0.15061331
172	0xfa	-0.075306654
173	0xfc	-0.050204437
174	0xfa	-0.075306654
175	0x19	0.31377774
176	0xd9	-0.48949325
177	0xe7	-0.31377774
178	0x10	0.20081775
179	0xf2	-0.17571554
180	0xf9	-0.08785777
181	0xab	-1.0668443
182	0x07	0.08785777
183	0xff	-0.012551109
184	0xfd	-0.037653327
185	0x18	0.30122662
186	0x0c	0.15061331
187	0xf9	-0.08785777
188	0xe1	-0.3890844
189	0xf8	-0.100408874
190	0x02	0.025102219
191	0xff	-0.012551109
192	0xe0	-0.4016355
193	0xd9	-0.48949325
194	0xea	-0.27612442
195	0x06	0.075306654
196	0xf2	-0.17571554
197	0xd5	-0.5396977
198	0xf1	-0.18826663
199	0x08	0.100408874
200	0xd6	-0.5271466
201	0xf8	-0.100408874
202	0xfb	-0.06275555
203	0xf4	-0.15061331
204	0xf0	-0.20081775
205	0xf3	-0.16316442
206	0xfe	-0.025102219
207	0x01	0.012551109
208	0xe7	-0.31377774
209	0xfc	-0.050204437
210	0xf0	-0.20081775
211	0x11	0.21336886
212	0xe7	-0.31377774
213	0x08	0.100408874
214	0x19	0.31377774
215	0xda	-0.47694215
216	0x01	0.012551109
217	0x19	0.31377774
218	0x06	0.075306654
219	0xf3	-0.16316442
220	0x10	0.20081775
221	0xf2	-0.17571554
222	0xdb	-0.46439105
223	0x0b	0.13806221
224	0xfb	-0.06275555
225	0xfc	-0.050204437
226	0x30	0.60245323
227	0xef	-0.21336886
228	0xf9	-0.08785777
229	0xfe	-0.025102219
230	0x0d	0.16316442
231	0xe9	-0.28867552
232	0x15	0.2635733
233	0x15	0.2635733
234	0x0c	0.15061331
235	0xfb	-0.06275555
236	0xef	-0.21336886
237	0xfa	-0.075306654
238	0x05	0.06275555
239	0xf4	-0.15061331
240	0xda	-0.47694215
241	0x10	0.20081775
242	0x08	0.100408874
243	0x0e	0.17571554
244	0x03	0.037653327
245	0x16	0.27612442
246	0x03	0.037653327
247	0xfc	-0.050204437
248	0x0d	0.16316442
249	0xc4	-0.75306654
250	0x0b	0.13806221
251	0x0e	0.17571554
252	0x23	0.43928882
253	0x03	0.037653327
254	0x09	0.11295998
255	0xf8	-0.100408874

sequential_5/conv2d_15/Conv2D f4 [32, 3, 3, 1]
0	0xbf487cd9	-0.783155
1	0x3f8c1366	1.094342
2	0x3d136bdd	0.03599154
3	0xbfbae656	-1.4601543
4	0xbfa99c38	-1.3250799
5	0x40283321	2.6281207
6	0x3f7f3410	0.99688816
7	0xc07c9179	-3.946379
8	0x404bcedf	3.1845014
9	0x40a48158	5.140789
10	0xbfb1008e	-1.3828294
11	0xc04beb44	-3.1862345
12	0x3ec2a62b	0.380174
13	0x40618835	3.5239384
14	0xbf18959f	-0.59603304
15	0xc0d46ad7	-6.638042
16	0x401a84c6	2.4143538
17	0x4055605f	3.334007
18	0xc0077700	-2.1166382
19	0xbf4bb085	-0.7956622
20	0xbf967bee	-1.175657
21	0xbfe07af5	-1.7537524
22	0x3faa1ac2	1.3289416
23	0x3fbd5267	1.4790772
24	0x4018bf85	2.3866894
25	0x400e9a2a	2.2281594
26	0x3dc56106	0.096376464
27	0x3eed6382	0.4636498
28	0xbe0ab401	-0.13545229
29	0xbfe837ff	-1.8142089
30	0x3fee49b0	1.8616238
31	0xc01f60af	-2.490276
32	0xbf2df9e1	-0.6795941
33	0x40475287	3.114412
34	0xbf4f9326	-0.81083906
35	0x3ed7a991	0.42121556
36	0x40576fd5	3.3662007
37	0xc0305c51	-2.7556345
38	0xbf803d48	-1.0018702
39	0xbfdc0fae	-1.7192285
40	0xc09177c9	-4.545872
41	0x3fb58445	1.418099
42	0xbe134d60	-0.14384985
43	0x400d01d2	2.203236
44	0x403abf71	2.9179347
45	0xbf8ede2e	-1.1161554
46	0xbffe795f	-1.988079
47	0x3f619ea0	0.8813267
48	0xbf67befa	-0.9052578
49	0xbffc97e1	-1.973385
50	0x3ebba7f6	0.36651582
51	0xbf83c2d2	-1.029383
52	0x3f7e5926	0.9935478
53	0x3eedb97f	0.46430585
54	0x401affa9	2.4218543
55	0x3f2752ea	0.6536089
56	0x3f34536a	0.7043978
57	0x3f22ffe1	0.6367169
58	0x3feb3097	1.8374203
59	0x3f44fa46	0.76944387
60	0xc02f860b	-2.7425563
61	0xc022e0e6	-2.5449767
62	0xbef494c0	-0.47769737
63	0x408f2509	4.473271
64	0xbfa03785	-1.2516943
65	0xc00bdffe	-2.1855464
66	0x3cf27017	0.029594464
67	0xc0850b9b	-4.1576667
68	0xbef211cc	-0.47279203
69	0xc00b9c57	-2.1814172
70	0xbe44b24f	-0.19208644
71	0x40b4973b	5.6434608
72	0x3ff667cf	1.925043
73	0xc008c927	-2.1372774
74	0xbf8f1e26	-1.1181076
75	0x400badcb	2.1824825
76	0xbf28338c	-0.65703654
77	0xbf974341	-1.1817399
78	0x3fb32ebf	1.3998641
79	0x3e62fb53	0.22166185
80	0xbef6aa34	-0.4817673
81	0xbf689849	-0.9085737
82	0xbf85f584	-1.046555
83	0x40145672	2.3177762
84	0x3f47c63d	0.7803686
85	0xc06b1ad8	-3.6735134
86	0x40271e46	2.6112227
87	0x4006b43f	2.1047513
88	0xc03e6ca3	-2.9753807
89	0x3f8c0d2c	1.094152
90	0x3fb3b2ad	1.4038903
91	0xc00d9345	-2.2121136
92	0xbec5527e	-0.385395
93	0x3fad6503	1.3546451
94	0xbffb599f	-1.9636725
95	0xbf6297c0	-0.885128
96	0x40489a23	3.1344078
97	0xc0187617	-2.3822076
98	0x3f04b3aa	0.51836646
99	0x3fa497d6	1.2858837
100	0xbfd4bae4	-1.6619534
101	0xbed50df3	-0.41612205
102	0x401e06f4	2.4691744
103	0xbfce737e	-1.6128995
104	0xbf926707	-1.1437691
105	0x4006b276	2.1046424
106	0xbee635c0	-0.44962883
107	0xbf3de46a	-0.7417666
108	0xbf73bd22	-0.9521047
109	0x3eb9847c	0.3623389
110	0x40300413	2.7502487
111	0xbfa9b1db	-1.3257402
112	0x3e8bd4f6	0.27310914
113	0x3fdc6931	1.7219602
114	0x3df6a182	0.12042524
115	0xbf946b1e	-1.159519
116	0x3f38f4db	0.7224862
117	0xbe437e9f	-0.19091271
118	0x3f4dfa1b	0.80459756
119	0xbf158580	-0.5840683
120	0x3f1b8a2e	0.6075772
121	0x3fbe1e2b	1.4852957
122	0xbfb96f8f	-1.448717
123	0x3ff4a13a	1.9111702
124	0x3fbed96c	1.4910102
125	0xbddd52be	-0.108067974
126	0x401f61d1	2.4903452
127	0x3f627129	0.8845392
128	0xbf853d41	-1.0409318
129	0x40320abf	2.781906
130	0xc03ae3c9	-2.920153
131	0xbf96f56c	-1.1793647
132	0x3efa1101	0.48841098
133	0xc06cac8a	-3.698031
134	0x401fd607	2.4974382
135	0x3f91b327	1.1382798
136	0x40088af7	2.1334817
137	0x3e964c79	0.2935522
138	0x3aed099a	0.0018084527
139	0xbf8c7206	-1.0972297
140	0xbfe0d638	-1.7565374
141	0xc02c2f14	-2.6903734
142	0xbfa3e933	-1.2805542
143	0xbd2c1028	-0.042007595
144	0x3f7b9bcf	0.9828462
145	0xc048f10e	-3.1397128
146	0x3fd7ea9e	1.6868474
147	0x3f602953	0.87563056
148	0xc0537f3a	-3.3046403
149	0x400c869a	2.1957154
150	0xbf3decbb	-0.7418935
151	0xbf93fec7	-1.1562127
152	0x3ffff574	1.9996781
153	0xbfa3db53	-1.2801307
154	0xbf377e56	-0.7167715
155	0xbf05c1e8	-0.52249
156	0xbe621aec	-0.22080582
157	0xbf4dfded	-0.80465585
158	0xbf8fbcfb	-1.1229547
159	0x3ead4f3f	0.33849522
160	0xbefab009	-0.4896243
161	0xbf16e663	-0.5894529
162	0xbcc8d705	-0.024516592
163	0x3fbe8d16	1.4886806
164	0xc035ab6c	-2.8385878
165	0xbf5baa65	-0.85806876
166	0x404761d0	3.115345
167	0xc0531249	-3.297991
168	0xbf8ff422	-1.1246378
169	0x4037bafc	2.8707876
170	0x3fd65b82	1.6746676
171	0xbf23d922	-0.64003193
172	0x3ff14291	1.884844
173	0xbef57e53	-0.4794794
174	0xc06c9a70	-3.696926
175	0x40094bf2	2.1452603
176	0x3aacb5b1	0.0013176707
177	0xc0032ed2	-2.0497327
178	0x403a03d0	2.9064827
179	0xbfa5d048	-1.2954187
180	0xbfe1dafc	-1.7644954
181	0xbfacba30	-1.349432
182	0x405c0dd7	3.4383447
183	0x3febcb1e	1.8421361
184	0x3fd9e81d	1.702396
185	0x3f1f23b1	0.62163836
186	0xbf27042e	-0.6524075
187	0xbea8a04e	-0.32934803
188	0x3eeae4f4	0.45877802
189	0x40803d13	4.0074553
190	0x403f45f9	2.9886458
191	0xc01bfa01	-2.437134
192	0xc0038a67	-2.0553224
193	0xbe1bae8e	-0.15203306
194	0xbfe51354	-1.7896523
195	0xc098e7d1	-4.778298
196	0x3fe04281	1.7520295
197	0x40286130	2.6309319
198	0x3d8a4fa3	0.06753471
199	0x3f5ae19e	0.85500515
200	0x3f5f7d6f	0.8730077
201	0xbf0ac24b	-0.5420272
202	0x3f8ec65f	1.1154288
203	0x3f0ef2a7	0.5583901
204	0x3db94a95	0.090474285
205	0x3f9de40b	1.2335218
206	0x3f6df466	0.9295105
207	0x4006d02e	2.1064563
208	0x3fe0b28f	1.7554492
209	0x402cd413	2.700444
210	0xbf8d6bea	-1.1048558
211	0xbfb19eca	-1.3876584
212	0xbf3401e4	-0.70315385
213	0x3ee7ad15	0.4524924
214	0xbd297229	-0.041368637
215	0xc0142bb1	-2.3151667
216	0x3f439100	0.7639313
217	0x40104486	2.2541823
218	0xbee0d02e	-0.43908828
219	0x3f28bcff	0.65913385
220	0x3fc52e4c	1.5404754
221	0xbff63caa	-1.9237263
222	0xbee57001	-0.44812015
223	0x3f807cca	1.0038083
224	0xc02d7ee3	-2.7108696
225	0x3f85e2fd	1.0459896
226	0xc02d2f0f	-2.7059972
227	0x4008e2c0	2.1388397
228	0x402a8634	2.664441
229	0xc099010c	-4.781378
230	0xbfe69091	-1.8012868
231	0x3fe4adbe	1.7865522
232	0x3fbbe20c	1.4678359
233	0xbe5dce08	-0.21660626
234	0x3f3a53a4	0.72783875
235	0x3f0ee67e	0.55820453
236	0x3fc8bb76	1.5682209
237	0x4021e074	2.5293245
238	0xc0015f05	-2.0214245
239	0xbf00b25e	-0.50272167
240	0x3ffc158b	1.9694074
241	0xc0450192	-3.0782208
242	0xbfaa659d	-1.331226
243	0xbd647686	-0.055777095
244	0x4050b918	3.2612972
245	0x401da829	2.4633887
246	0xc0250d3e	-2.5789332
247	0xc00fb364	-2.2453241
248	0x3f2a7fa1	0.66600996
249	0x4013eb4c	2.3112364
250	0xc03fd3dc	-2.9973059
251	0x3ed62567	0.4182541
252	0xc004ddcd	-2.0760376
253	0xbfd57b35	-1.6678225
254	0x3fb02721	1.3761941
255	0xc02a947d	-2.665313

sequential_5/conv2d_16/Conv2D i1 [64, 6, 6, 32]
0	0x10	16
1	0xe8	-24
2	0xe2	-30
3	0xde	-34
4	0x02	2
5	0x26	38
6	0xee	-18
7	0x27	39
8	0xa4	-92
9	0xdd	-35
10	0x0e	14
11	0xd9	-39
12	0x04	4
13	0xe7	-25
14	0x04	4
15	0x2d	45
16	0x12	18
17	0x1c	28
18	0x06	6
19	0x1d	29
20	0xbe	-66
21	0xfb	-5
22	0xd3	-45
23	0xfb	-5
24	0xfe	-2
25	0x3b	59
26	0xfb	-5
27	0x16	22
28	0xf8	-8
29	0x43	67
30	0x3c	60
31	0xe4	-28
32	0xf4	-12
33	0xcd	-51
34	0xd3	-45
35	0xea	-22
36	0xf3	-13
37	0xff	-1
38	0xfc	-4
39	0xf1	-15
40	0xf9	-7
41	0xef	-17
42	0x16	22
43	0x16	22
44	0x02	2
45	0xe4	-28
46	0x1b	27
47	0x3d	61
48	0x11	17
49	0x21	33
50	0x9f	-97
51	0xd1	-47
52	0xfa	-6
53	0xbd	-67
54	0xea	-22
55	0x18	24
56	0xda	-38
57	0x25	37
58	0x01	1
59	0x17	23
60	0xae	-82
61	0x2e	46
62	0x0a	10
63	0xea	-22
64	0xdf	-33
65	0xde	-34
66	0xd7	-41
67	0xe5	-27
68	0xf4	-12
69	0xfc	-4
70	0x1d	29
71	0x03	3
72	0xb0	-80
73	0xe0	-32
74	0xb9	-71
75	0xce	-50
76	0xe8	-24
77	0xf7	-9
78	0xf7	-9
79	0x2f	47
80	0xcd	-51
81	0xf8	-8
82	0xbc	-68
83	0xbc	-68
84	0xed	-19
85	0xf8	-8
86	0xdd	-35
87	0x14	20
88	0xc1	-63
89	0xcd	-51
90	0xf2	-14
91	0xfa	-6
92	0xd6	-42
93	0x18	24
94	0xf7	-9
95	0xea	-22
96	0xfa	-6
97	0xff	-1
98	0xcf	-49
99	0xdf	-33
100	0xd0	-48
101	0xda	-38
102	0xfb	-5
103	0xf2	-14
104	0xc6	-58
105	0xb7	-73
106	0xcb	-53
107	0xe2	-30
108	0xe4	-28
109	0xe7	-25
110	0xfa	-6
111	0xf7	-9
112	0xef	-17
113	0xd9	-39
114	0x1f	31
115	0x03	3
116	0xe5	-27
117	0x0d	13
118	0xe6	-26
119	0x01	1
120	0xef	-17
121	0xc8	-56
122	0xed	-19
123	0xfd	-3
124	0xa0	-96
125	0xf7	-9
126	0xfd	-3
127	0xf0	-16
128	0x00	0
129	0xe4	-28
130	0xb3	-77
131	0xe5	-27
132	0xdb	-37
133	0xf0	-16
134	0xf3	-13
135	0xdd	-35
136	0xef	-17
137	0xf6	-10
138	0xc1	-63
139	0xcf	-49
140	0x04	4
141	0xe2	-30
142	0xa2	-94
143	0xec	-20
144	0xcc	-52
145	0xcd	-51
146	0xd4	-44
147	0xe9	-23
148	0xe5	-27
149	0xe2	-30
150	0xe6	-26
151	0xf9	-7
152	0xd0	-48
153	0xeb	-21
154	0xea	-22
155	0xed	-19
156	0xb0	-80
157	0xe2	-30
158	0xf8	-8
159	0xf1	-15
160	0xea	-22
161	0xec	-20
162	0xcc	-52
163	0xf0	-16
164	0xe8	-24
165	0xf0	-16
166	0xe9	-23
167	0xe1	-31
168	0x10	16
169	0xf2	-14
170	0xf8	-8
171	0x17	23
172	0xfa	-6
173	0xf2	-14
174	0xfd	-3
175	0x1c	28
176	0xeb	-21
177	0x19	25
178	0x01	1
179	0xee	-18
180	0x0b	11
181	0x0d	13
182	0x02	2
183	0xc0	-64
184	0x2b	43
185	0xec	-20
186	0xd4	-44
187	0xe1	-31
188	0xb5	-75
189	0xfd	-3
190	0xf5	-11
191	0xf1	-15
192	0x01	1
193	0xf6	-10
194	0x0b	11
195	0xf9	-7
196	0xe6	-26
197	0x1c	28
198	0xf7	-9
199	0x12	18
200	0xe2	-30
201	0xf8	-8
202	0x08	8
203	0x05	5
204	0xfa	-6
205	0xf1	-15
206	0x0e	14
207	0x1f	31
208	0x08	8
209	0x17	23
210	0x13	19
211	0x1b	27
212	0xe0	-32
213	0xfc	-4
214	0xea	-22
215	0xef	-17
216	0xf6	-10
217	0x16	22
218	0xd5	-43
219	0x03	3
220	0x3a	58
221	0x22	34
222	0x21	33
223	0xe0	-32
224	0xcf	-49
225	0xa4	-92
226	0xed	-19
227	0x0f	15
228	0xc2	-62
229	0x31	49
230	0xf6	-10
231	0x13	19
232	0x1a	26
233	0xdc	-36
234	0x30	48
235	0x27	39
236	0xcb	-53
237	0xfa	-6
238	0x33	51
239	0x3b	59
240	0xff	-1
241	0x36	54
242	0xd6	-42
243	0xb5	-75
244	0xea	-22
245	0xa0	-96
246	0xd8	-40
247	0xf9	-7
248	0xde	-34
249	0x3d	61
250	0x07	7
251	0xf4	-12
252	0xb2	-78
253	0x1c	28
254	0xe0	-32
255	0xd9	-39

sequential_5/conv2d_17/Conv2D i1 [64, 6, 6, 64]
0	0xf9	-7
1	0xff	-1
2	0xf6	-10
3	0xf8	-8
4	0xf9	-7
5	0xfe	-2
6	0xfb	-5
7	0xf8	-8
8	0xff	-1
9	0x03	3
10	0xfb	-5
11	0xfb	-5
12	0xfc	-4
13	0xf9	-7
14	0xfe	-2
15	0xf8	-8
16	0x04	4
17	0xfa	-6
18	0xff	-1
19	0xfa	-6
20	0x01	1
21	0xfd	-3
22	0xf8	-8
23	0xfb	-5
24	0xfb	-5
25	0xfd	-3
26	0x04	4
27	0xfe	-2
28	0xf7	-9
29	0xf9	-7
30	0xfb	-5
31	0xfe	-2
32	0xfb	-5
33	0xfe	-2
34	0xfe	-2
35	0xf8	-8
36	0x09	9
37	0xf9	-7
38	0x03	3
39	0xf7	-9
40	0xf8	-8
41	0xf5	-11
42	0xf6	-10
43	0xfc	-4
44	0xfb	-5
45	0xf3	-13
46	0xfe	-2
47	0x0a	10
48	0xff	-1
49	0xfd	-3
50	0x18	24
51	0xfa	-6
52	0xfa	-6
53	0xf7	-9
54	0xfb	-5
55	0xf6	-10
56	0xf8	-8
57	0xfa	-6
58	0xff	-1
59	0xfb	-5
60	0xff	-1
61	0xf8	-8
62	0xfd	-3
63	0xfd	-3
64	0xfd	-3
65	0xfa	-6
66	0x01	1
67	0x0d	13
68	0xfe	-2
69	0x1a	26
70	0xfa	-6
71	0xfa	-6
72	0x03	3
73	0x01	1
74	0xf7	-9
75	0x01	1
76	0x08	8
77	0xfe	-2
78	0xfc	-4
79	0x01	1
80	0xfe	-2
81	0xfc	-4
82	0x03	3
83	0xfb	-5
84	0xff	-1
85	0xfa	-6
86	0xfa	-6
87	0xf3	-13
88	0xfa	-6
89	0xfa	-6
90	0xf2	-14
91	0x0b	11
92	0xf3	-13
93	0xf9	-7
94	0xfe	-2
95	0x14	20
96	0x01	1
97	0xfd	-3
98	0xfd	-3
99	0x14	20
100	0x09	9
101	0xf8	-8
102	0xfa	-6
103	0x0f	15
104	0x00	0
105	0x05	5
106	0xf8	-8
107	0xfe	-2
108	0xfe	-2
109	0xfb	-5
110	0x0a	10
111	0x02	2
112	0xfb	-5
113	0xf8	-8
114	0x01	1
115	0xf6	-10
116	0xf8	-8
117	0xf9	-7
118	0xfe	-2
119	0x00	0
120	0xf2	-14
121	0xfe	-2
122	0xfd	-3
123	0x01	1
124	0xfb	-5
125	0xf4	-12
126	0xfd	-3
127	0xfb	-5
128	0xfb	-5
129	0xfe	-2
130	0xf8	-8
131	0x2d	45
132	0xfe	-2
133	0x0d	13
134	0xf7	-9
135	0xfa	-6
136	0x04	4
137	0xff	-1
138	0xf4	-12
139	0x10	16
140	0x06	6
141	0x02	2
142	0x03	3
143	0x03	3
144	0x05	5
145	0xf8	-8
146	0x00	0
147	0xf9	-7
148	0xfb	-5
149	0xfc	-4
150	0xfa	-6
151	0xfc	-4
152	0xfd	-3
153	0xf7	-9
154	0xfb	-5
155	0x18	24
156	0xf5	-11
157	0x00	0
158	0x05	5
159	0x11	17
160	0xe9	-23
161	0x03	3
162	0xf9	-7
163	0xfc	-4
164	0x10	16
165	0x05	5
166	0xf4	-12
167	0x02	2
168	0xf7	-9
169	0xfe	-2
170	0xf8	-8
171	0xf8	-8
172	0x08	8
173	0xfd	-3
174	0xf7	-9
175	0xf9	-7
176	0x05	5
177	0xfa	-6
178	0xf4	-12
179	0xf7	-9
180	0xfb	-5
181	0xfd	-3
182	0xf2	-14
183	0x05	5
184	0x03	3
185	0xf9	-7
186	0x03	3
187	0x0e	14
188	0xff	-1
189	0xfe	-2
190	0xfc	-4
191	0xf8	-8
192	0xf0	-16
193	0x00	0
194	0xf5	-11
195	0xfb	-5
196	0x0d	13
197	0xe2	-30
198	0x02	2
199	0x0d	13
200	0xf7	-9
201	0xe4	-28
202	0xfa	-6
203	0xe0	-32
204	0x01	1
205	0xf0	-16
206	0xdf	-33
207	0xf7	-9
208	0xfd	-3
209	0x02	2
210	0x0b	11
211	0x10	16
212	0xec	-20
213	0x16	22
214	0x08	8
215	0xf0	-16
216	0xfe	-2
217	0x0a	10
218	0x1a	26
219	0xe8	-24
220	0xf6	-10
221	0x03	3
222	0xfc	-4
223	0xe4	-28
224	0xed	-19
225	0x04	4
226	0x00	0
227	0xfc	-4
228	0x08	8
229	0x0b	11
230	0xee	-18
231	0x1a	26
232	0x06	6
233	0xfa	-6
234	0xef	-17
235	0xfd	-3
236	0xf2	-14
237	0x05	5
238	0xf7	-9
239	0x16	22
240	0xf7	-9
241	0xf6	-10
242	0xfc	-4
243	0xfa	-6
244	0x0a	10
245	0x0d	13
246	0xf5	-11
247	0xea	-22
248	0x06	6
249	0xf7	-9
250	0x1e	30
251	0x17	23
252	0xf8	-8
253	0x0a	10
254	0x00	0
255	0x02	2
